pretrained_model/current_model_50000.pth (torch_old, 496659 bytes, 10 tensors)

weight f4 [32, 4, 8]
000000 41 16 33 be 75 1d 90 bc 36 88 af 3d 7b 78 39 3e
       -0.17488958 -0.017592171 0.08570902 0.18112366
000010 92 bb f9 bd 35 14 5b 3d 76 45 c0 3d f4 2a de bd
       -0.12193979 0.053486068 0.093882486 -0.108480364
000020 40 8c 4e 3d f1 fc 34 be e5 96 5a ba 9e f4 22 3e
       0.05042672 -0.17674614 -0.0008338525 0.15913627
000030 a1 e3 59 3e ee 88 01 3e 7b 03 b1 bd 2b 69 54 3e
       0.2127824 0.12649891 -0.08643242 0.20743243
000040 8a eb 5f be c0 52 f7 bb 5d e3 0c bd f5 dc 3b bb
       -0.21867195 -0.0075477064 -0.034396518 -0.0028665636
000050 d7 a5 5e 3d a8 fd 6f 3c 22 bc 04 3e 7f f6 ff 3d
       0.054357376 0.014647879 0.12962392 0.12498187
000060 46 a4 eb bb 27 90 fc bd 54 31 da bd 91 60 1b bc
       -0.007191214 -0.123321824 -0.1065394 -0.009483472
000070 fa 85 ac bc d1 2e fe bd 7c 05 26 3e 4a 2e e9 bc
       -0.021059979 -0.12411273 0.1621303 -0.028464455
000080 1b 75 0b ba a4 12 19 3e 13 04 52 3e 05 a7 dc bd
       -0.0005319879 0.14948517 0.20509367 -0.10774044
000090 0c 40 3b 3e e4 12 10 3e e2 30 2a bd 4b 1e bc 3d
       0.1828615 0.14069706 -0.041550525 0.091854654
0000a0 bd 66 44 be d0 2e 3e 3e 15 ac 5b 3e e6 b9 95 bd
       -0.19179817 0.18572545 0.21452363 -0.07310848
0000b0 a5 07 2e 3d c9 f5 13 be 2f ea c6 bc f4 bd 7e bd
       0.04248776 -0.14449228 -0.02428159 -0.062192872
0000c0 f2 a1 bc bc 33 2b 11 be 77 88 39 3e a2 9a 5b 3e
       -0.02302644 -0.14176635 0.18118463 0.21445706
0000d0 6e 66 02 be 44 b3 88 3d e7 10 25 bd fd 21 38 3d
       -0.12734386 0.06674817 -0.040299322 0.04495429
0000e0 d6 93 fe bd b3 65 0e be 87 a9 27 bd f4 0e 2c bd
       -0.12430541 -0.13905983 -0.04093316 -0.042006448
0000f0 88 3c 0e be e7 22 ff 3d 15 ef 9c bd 67 05 3f 3e
       -0.13890278 0.12457829 -0.07662789 0.18654405
000100 d9 7f 7a 3d 0d 3e 09 3e 26 6e 39 be fa b0 3a be
       0.06115708 0.13402577 -0.18108425 -0.18231574
000110 27 05 b3 3d 83 25 06 be 54 f9 9f 3d c3 23 0d 3e
       0.08741217 -0.13100247 0.078112274 0.13783173
000120 d9 ff d6 3d 41 73 29 bd aa 5a 8f 3c c5 08 25 bd
       0.10498018 -0.04136968 0.017499287 -0.040291566
000130 8e 55 2a 3e 61 49 20 be 9c b5 98 bd fb b8 7c 3d
       0.16634199 -0.15652992 -0.07456514 0.06169985
000140 bd 50 31 3c 41 74 11 3d b9 16 9a bd 57 2c c7 bd
       0.010822472 0.03551126 -0.07523865 -0.09725254
000150 80 cc e7 3c 7f 80 ca 3d 29 b1 72 3b 0f 43 24 3e
       0.028295755 0.0988779 0.0037031865 0.16041206
000160 27 e8 ec bd 6c 0a c5 bd 45 88 fa bd 15 62 69 bc
       -0.11567717 -0.096211284 -0.122330226 -0.014244576
000170 c8 56 13 3e fb e1 35 3b d2 f7 26 be 20 a8 77 bc
       0.14388573 0.0027753103 -0.16305473 -0.015115768
000180 0d cd 1d 3e 05 01 2c 3c bb d0 05 3d c8 ad 29 3d
       0.15410252 0.01049829 0.032669764 0.041425496
000190 15 e8 50 be de ec 7c bd d0 b9 a0 bb d8 73 51 3d
       -0.20401032 -0.06174933 -0.004904963 0.051135868
0001a0 77 3c 49 3d f2 c8 3e 3d e4 d2 21 bd 49 c5 d3 bd
       0.04912993 0.046578355 -0.03950776 -0.103403635
0001b0 3a 66 85 be 68 31 e3 bd dd c3 e7 bd 0d 25 eb bd
       -0.26054555 -0.11093408 -0.11316655 -0.11481676
0001c0 59 3f 1c 3d 8a b5 0b bc d2 f8 d9 3d 67 bd ae bd
       0.03814635 -0.008527169 0.10643162 -0.085322194
0001d0 45 82 b9 ba 9f 00 a9 bd f4 c3 f2 3d 6e ef ce bc
       -0.0014153203 -0.082520716 0.11853781 -0.025260653
0001e0 fb 86 5b 3b 86 74 44 3e 93 0a 29 3e ed c4 bc 3d
       0.0033497203 0.19185075 0.1650794 0.09217248
0001f0 56 3c 88 bc a6 61 0d 3e 4b cf 80 3c ea aa 02 3e
       -0.016630333 0.13806781 0.015723845 0.12760511
000200 99 b6 1c be ea cf 3f be 82 9d 42 3e 9c 4a 04 3c
       -0.1530403 -0.18731657 0.19005397 0.008074429
000210 fc d6 9c bd 9e ff ba 3d b1 14 3d 3e a8 e6 34 3c
       -0.076581925 0.09130786 0.18464924 0.011041321
000220 b8 1d 11 be 3f 9b a9 bd 22 68 ad bc 89 16 dd 3d
       -0.14171493 -0.08281564 -0.021167818 0.10795314
000230 fb 3c ab 3d 7d 30 35 bd fb 95 3a bd 7a 26 d8 bd
       0.083612405 -0.044235695 -0.04555319 -0.10554214
000240 2f fb 01 be 43 09 3b 3d a3 53 8c bc 6b 7a a5 3b
       -0.12693475 0.04566313 -0.017129725 0.0050499937
000250 5e ac e0 bc 59 a6 d9 bd 1a 8a 1d 3e bc f9 42 3e
       -0.027425941 -0.106274314 0.15384713 0.19040579
000260 67 9a 1a 3c 83 13 3c bc 7e 4e 90 bd d0 f0 90 3d
       0.009436226 -0.011479261 -0.07046221 0.07077181
000270 de 5b ba bc 02 09 db bd 65 d0 0d bd ee 99 1c 3e
       -0.022748884 -0.106950775 -0.03462257 0.15293095
000280 20 82 0f be 9a 2c 16 3d 4c b4 1a 3e 77 dd 15 be
       -0.14014482 0.03666363 0.1510784 -0.14635263
000290 f6 03 cd 3d c0 db 32 bd d8 3e f4 bc 28 0a 30 be
       0.10010521 -0.0436666 -0.029815122 -0.17191374
0002a0 12 29 c2 3d 91 69 f0 3c 54 f2 df bd 36 a5 22 be
       0.0948049 0.029347213 -0.10934892 -0.15883335
0002b0 89 ea 28 3d e3 6c 07 3e 25 b8 1f 3e 23 1f 6b bd
       0.041239295 0.1322513 0.1559759 -0.05740274
0002c0 12 f3 7e bd e4 cb 6f 3c 80 e3 9e bd d6 82 86 bc
       -0.06224353 0.014636014 -0.07758236 -0.01641981
0002d0 e4 bd b9 bb 09 f5 21 3d a9 ab 2f bc 03 97 95 bd
       -0.0056683887 0.039540324 -0.010722079 -0.07304194
0002e0 44 e2 c3 bd 20 3d 10 3e fa 2c c7 3c 6b 1e 9e 3d
       -0.09564641 0.14085817 0.024313439 0.077206455
0002f0 74 27 dc bc 73 a9 b3 bd ca 2c 33 3e 17 c1 62 be
       -0.026874281 -0.08772554 0.17497554 -0.2214397
000300 71 71 21 3c 25 06 e6 3d ec 32 10 be 1d be b3 bd
       0.009853707 0.11231641 -0.14081925 -0.087764956
000310 00 6a 30 bd 19 88 0b be 08 d5 0c 3e 6c d3 2b 3e
       -0.04306984 -0.13626136 0.1375314 0.1677987
000320 d5 07 85 3d 74 64 a7 bc 81 95 2b be 61 ee e8 3c
       0.064956345 -0.020433642 -0.1675625 0.02843398
000330 d8 b7 0e be 7c 36 b4 bd b6 f1 ce bd f0 ce a1 3c
       -0.13937318 -0.087994546 -0.101046965 0.019751996
000340 35 0f f0 3c b8 63 8a 3d 11 ea 4d bd 17 e6 96 bd
       0.029304126 0.06757301 -0.05027205 -0.07368105
000350 db 00 16 3e 9f 8d f7 3d ea 0a 62 3d a6 fd eb 3c
       0.14648764 0.12087559 0.05518619 0.028807472
000360 d6 9c 15 3e 6e 5a 46 bd 8e 3c a2 bd 34 a6 1d be
       0.1461061 -0.048426084 -0.07921706 -0.15395433
000370 ca a6 30 3a 9c d2 43 bd 79 11 e3 3d d4 77 ac bd
       0.00067387207 -0.047808275 0.11087317 -0.08421293
000380 c2 d7 06 be 2d 3c a6 bd 8b 88 7e 3c fd df 05 bd
       -0.13168243 -0.08116946 0.015535484 -0.032684315
000390 b4 9c 58 3d 14 68 ae bc 13 c3 36 bd 90 a1 0e bd
       0.05288382 -0.021289863 -0.04461963 -0.034822047
0003a0 05 11 63 3d a2 85 a6 3d 10 43 41 3d 50 c1 31 bc
       0.055436153 0.08130957 0.047183096 -0.010849312
0003b0 fa 23 c5 bd ab eb 56 3d 28 09 04 3e 54 24 c9 3d
       -0.096260026 0.052470844 0.12894118 0.09821382
0003c0 70 f5 0b be d7 19 b3 3c 59 39 d2 bd 12 05 ad bd
       -0.13667846 0.021862907 -0.102648444 -0.08448233
0003d0 77 f4 04 be 32 26 90 3d 65 30 3e 3a 65 b2 85 3d
       -0.12983881 0.07038535 0.0007255136 0.06528167
0003e0 23 77 6e be d8 1f 87 3d 11 ea 5f bd 28 06 0b be
       -0.23287635 0.065978706 -0.054666582 -0.13576567
0003f0 fe d2 9f 3d 8f e0 03 3e 4e 98 0a 3e 06 45 44 bb
       0.078039154 0.12878631 0.13534662 -0.0029948368

bias f4 [32]
000000 e5 19 c8 bc 8a 0a f8 bb 36 f9 56 3e b1 09 26 3c
       -0.02442641 -0.0075696157 0.20993504 0.010134147
000010 48 87 f9 3d 15 e3 51 3e a7 b2 30 3e ba 02 3a 3e
       0.12184006 0.20496781 0.1725565 0.18165103
000020 05 b0 22 bd d2 06 75 bd 35 45 3c 3d 67 ff aa 3c
       -0.039718647 -0.059820957 0.04596444 0.020873738
000030 82 03 8a 3d 8b c9 04 3e fd 57 a7 3d f8 b3 f8 3d
       0.0673895 0.12967508 0.08171079 0.12143701
000040 62 23 20 3e c9 a6 46 3e 7a e6 bd 3d c9 93 41 3e
       0.15638497 0.19399561 0.092724755 0.18904032
000050 f7 31 07 3e cd bb 71 bd 42 94 0e 3d 6d 4e fa 3d
       0.13202654 -0.05901699 0.03480936 0.1222199
000060 a1 79 b9 3c f5 1e a5 3d 8f a8 19 3e 0a b0 2b bd
       0.022641005 0.08062545 0.15005706 -0.04191593
000070 d5 e9 dc 3c 5e 35 36 3d a7 83 a7 bd 14 a4 fa bd
       0.026966969 0.04448449 -0.081794076 -0.12238327

weight f4 [64, 32, 4]
000000 72 c2 83 3c 5f 2e a9 3d 08 b3 bd 3d b8 74 9d 3c
       0.01608393 0.08260798 0.09262663 0.019220695
000010 89 b7 8d bd e1 14 22 3d 02 b1 08 be 3d 8c 41 bd
       -0.06919772 0.039570693 -0.13348773 -0.047252882
000020 22 76 a7 bb f0 13 d6 3d b0 9a b6 3d b2 05 65 3d
       -0.005110518 0.104530215 0.08916223 0.055913635
000030 d9 54 b5 3c 7c bc c0 bd a0 96 a9 3d ef 3e a9 3d
       0.022135185 -0.094109505 0.082806826 0.08263957
000040 e6 49 42 bd d6 6c 63 bc 88 c9 6f bc 3a d8 ee bc
       -0.047433756 -0.013880929 -0.014635451 -0.02915584
000050 2b cd ed bc c9 1d e4 bc 3d 4c fb 3c a2 9c ef bc
       -0.029028496 -0.027846234 0.030676002 -0.029249493
000060 af 89 11 3d 94 39 77 bc 45 b6 3e 3c 16 85 2b bd
       0.035531696 -0.015089411 0.011640136 -0.041874968
000070 33 40 c5 3d e2 12 da 3d 81 da 39 3c d8 53 a3 3c
       0.09631386 0.10648133 0.011343599 0.01993744
000080 7b ca 33 bd 3b fb 11 be 6e c1 66 3d be 3f 8c bc
       -0.043894272 -0.14255993 0.056336813 -0.017120238
000090 74 65 b4 bc 60 2b 5b bc c2 e7 5c bd 2b 2c 01 be
       -0.022021033 -0.013377041 -0.05393196 -0.12614505
0000a0 db 26 94 bd 50 38 af bc 4d 87 96 3d 91 5e 06 be
       -0.072339736 -0.021389157 0.07350025 -0.13122012
0000b0 ff 86 c8 3d 61 8c 9f bd ef 92 8a 3d f0 40 8a 3d
       0.097913735 -0.07790447 0.067663066 0.06750667
0000c0 d6 11 ba bc 99 5c c2 bc c8 0d 80 3d 8d 47 ee 3c
       -0.022713583 -0.023725795 0.062526286 0.029086852
0000d0 3e c0 2d bd ca 6b 42 bc a2 ce 27 3d 02 f8 1f 3d
       -0.042419665 -0.011866519 0.040968545 0.039054878
0000e0 61 76 10 bd 3e ab 90 3d 1d 7f 4c bd 4c 63 28 3c
       -0.035269145 0.07063912 -0.049925912 0.0102775805
0000f0 6d fb dc 3c db a3 e6 3d 4e 9e 05 bd 85 e7 5c 3d
       0.026975358 0.11261722 -0.032621674 0.05393173
000100 b4 05 84 3d 06 9f b9 bc 27 6c ae bc c1 10 c7 bd
       0.064464 -0.022658836 -0.021291805 -0.097199924
000110 68 a8 d5 bc b2 9e 7e 3d 34 c8 1a 3c ef 51 9b bd
       -0.026081279 0.062163062 0.009447146 -0.07583987
000120 8c 9b b6 3d de 46 f7 bc d2 8c 1d 3d 1f 2f 8d 3d
       0.08916387 -0.03018516 0.038464375 0.06893753
000130 7e 94 b8 3b f3 bc 95 bb 25 a3 45 3d 95 4b 52 3d
       0.005632936 -0.0045696436 0.04825129 0.051341612
000140 94 32 7c 3d 09 e0 a1 3d e1 35 63 bd 9e 7f 64 3c
       0.061571673 0.079040594 -0.055471305 0.013946442
000150 66 a4 b6 bd 8c 3f cb bd e2 d9 c6 3d a3 d0 13 3d
       -0.08918075 -0.0992423 0.097095266 0.036087643
000160 cf f3 90 bd 68 18 71 ba 46 81 32 bd e8 a2 8f bd
       -0.07077753 -0.0009197057 -0.043580316 -0.07013494
000170 6a 70 d2 bd 92 89 6d 3d fe 3d 34 3d 0f f5 95 bd
       -0.102753475 0.057992525 0.044004433 -0.07322132
000180 77 fa a2 bd 7d 6d 23 bc 72 fc 92 3d f6 29 fe bd
       -0.07957929 -0.0099748345 0.07177056 -0.12410347
000190 3b b9 86 bd 86 8b 9c 3d c3 1d 4f bb 45 11 5f bc
       -0.06578299 0.076437995 -0.0031603433 -0.013614957
0001a0 51 0a a4 3d e0 08 9c 3d 95 c1 bb 3d e7 02 80 3d
       0.0800978 0.0761888 0.09167782 0.062505536
0001b0 44 07 f5 bd 99 dd 90 bd e6 e7 21 be 90 c5 a0 bd
       -0.119642764 -0.070735164 -0.15811118 -0.07850182
0001c0 98 52 06 be 4f 9b 8e bc bf 61 1d 3c 15 f8 3d bb
       -0.13117445 -0.017408041 0.009605824 -0.002898698
0001d0 9d d5 66 3d ad cf 7b 3d f4 a6 c8 bd 5e 6b 3b 3d
       0.05635606 0.061477352 -0.09797469 0.04575669
0001e0 36 d5 3b bd 87 58 18 3d 5d 26 c4 3c 14 7d e8 bd
       -0.04585763 0.0371938 0.023944074 -0.11351982
0001f0 7d fa ef bd 64 98 9a 3d 3c 06 73 3d 96 a9 5c bd
       -0.11717699 0.075485975 0.059332117 -0.053872667
000200 68 c5 e1 3d 89 31 bb bc 89 03 30 bc 17 ec e9 bc
       0.110239804 -0.022850769 -0.01074303 -0.02855496
000210 68 ef b4 3d 54 76 d3 bc df ab 00 3d b3 57 4b 3c
       0.088347256 -0.02581326 0.03141391 0.012411046
000220 3b ca b2 3b bd e2 74 3d 59 96 ac 3d c6 4d 90 3d
       0.0054562367 0.059786547 0.08427114 0.07046084
000230 c8 0c fe 3d c5 a2 58 3d 4c f7 63 bb d6 9b 35 bd
       0.124047816 0.052889604 -0.0034784852 -0.04433807
000240 6b 19 48 bd e7 28 30 bc e4 46 d7 3c 33 39 95 3d
       -0.048852365 -0.010751939 0.02627892 0.072863005
000250 7d 84 e1 3c 33 ce c4 3c 09 f6 ba 3d df 6b c8 3d
       0.027528996 0.024024105 0.09128959 0.097862
000260 53 29 1f 3d 4a 6e a6 3d 11 d4 3a bc 61 1b 44 3d
       0.03885777 0.08126505 -0.0114031 0.047877673
000270 ed 00 85 bd fa 9e bf bc 1c 59 b1 3d 83 9e 47 bd
       -0.06494317 -0.023391236 0.086595744 -0.048735153
000280 1f 78 9c 3d 02 37 8b bd 78 83 c8 bd 77 83 b9 3d
       0.07640099 -0.06797601 -0.09790701 0.09058278
000290 24 b6 e5 3d 2e 72 b9 3d 82 f1 fb bc ef f9 26 bd
       0.11216381 0.09054981 -0.030754808 -0.0407657
0002a0 2f 25 ee 3c f4 15 97 bd 69 15 8f bd eb 97 9b 3d
       0.029070465 -0.07377234 -0.069865055 0.075973354
0002b0 58 8f 03 3a dc 84 dd bc f8 f0 f9 3c e4 e4 f6 3d
       0.00050186133 -0.027040891 0.03051041 0.12055376
0002c0 4c 64 f2 3d 52 20 e0 bc 1c ca d8 3c 21 5f 88 bd
       0.11835536 -0.027359162 0.02646356 -0.066587694
0002d0 9f c2 94 3d 1a 7a 81 3d 52 2e 01 3d 66 88 ec 3c
       0.072636835 0.06322117 0.031538315 0.028873634
0002e0 be 30 e3 3c 56 6a 19 3d 65 25 52 bd 5c a2 86 bc
       0.027733203 0.037454925 -0.051305193 -0.01643484
0002f0 36 3e 99 bd 6a bd af 3c b9 f9 83 bc 29 b0 c4 3d
       -0.07482569 0.021452624 -0.016110288 0.096039124
000300 00 f7 e2 3d 36 34 60 bd 6b 02 56 3c 52 a7 07 3d
       0.11082268 -0.054737292 0.0130621 0.033118553
000310 77 7d fe 3c f4 b5 22 3d 60 67 7c 3d 90 c8 99 3c
       0.031065686 0.039724305 0.061622024 0.018772393
000320 1a 78 4c bd 4d 77 93 ba 70 a7 12 bd b4 0f 40 bd
       -0.049919225 -0.0011250764 -0.035804212 -0.046889976
000330 9b 14 32 bd 81 58 85 ba 32 c1 76 3b c3 86 81 bd
       -0.043476682 -0.0010173471 0.0037651774 -0.06324532
000340 b3 19 63 bd 98 06 37 3d 75 7a 5b bd 60 e6 fb bc
       -0.05544443 0.044684023 -0.05358358 -0.0307495
000350 76 f7 05 3e 03 d3 d0 3d 4b 6d 18 be ce c3 5d bd
       0.1308268 0.10196497 -0.14885442 -0.054141812
000360 f5 0a b0 3d 87 47 5c bc 7a 52 c5 3d 68 1b 16 3d
       0.0859584 -0.013444788 0.09634872 0.03664723
000370 cd 7e 0b 3e 64 79 86 bd fc c4 fd bd 35 06 37 bd
       0.1362259 -0.06566122 -0.123910874 -0.044683654
000380 9e 01 db 3d 97 f5 dc 3d 11 7e b4 bd ab 54 cb 3d
       0.10693668 0.1078903 -0.08813108 0.099282585
000390 66 b5 d0 3d ab ba e3 3d 94 da df 3c 12 bb 42 3d
       0.10190849 0.111195885 0.027325906 0.047541685
0003a0 ef fe 76 bd 3e 04 9b 3d 50 b7 ed 3d ba 05 3a bb
       -0.060301717 0.075691685 0.1160723 -0.002838476
0003b0 35 f4 c8 bc ea 4f b6 bc fa 96 d7 3c bf 1f ab bd
       -0.02453051 -0.022254903 0.026317108 -0.083556645
0003c0 79 be 57 bd f6 89 d8 bd f4 ff 04 3e 45 fa 02 bc
       -0.052671883 -0.10573189 0.12988263 -0.007994239
0003d0 25 b1 53 bc 3c b4 a7 3b 35 5c 09 3d 1f 0e af 3c
       -0.0129206525 0.005117921 0.0335352 0.021369038
0003e0 1b 87 ec bb cd 0b 66 bd 6c 23 47 bc aa bb e2 3d
       -0.0072182543 -0.056163598 -0.012154441 0.1107095
0003f0 93 81 af bd d9 f3 04 be f1 82 8c 3d 38 40 19 3e
       -0.08569636 -0.12983645 0.068609126 0.14965904

bias f4 [64]
000000 6d ce c7 3d 07 e2 6f bc b3 11 09 3b d6 44 85 3c
       0.097561695 -0.014641291 0.002091509 0.016268175
000010 3c 60 15 3c f2 1e 88 bd 95 ad ee 3d 6c 93 86 bd
       0.009117182 -0.06646527 0.11654202 -0.06571087
000020 6d 5c b9 bb c0 43 c4 3d ec c7 79 3a 1b 67 a0 bc
       -0.00565677 0.09583235 0.0009528387 -0.019580415
000030 93 86 8d bd 9c c7 2d bd ba 6c 40 bb 87 fa 41 3d
       -0.069104336 -0.04242669 -0.002936168 0.047358062
000040 72 77 90 3d ae d5 09 3c d8 34 93 bc 67 ed 86 3d
       0.070540324 0.008412762 -0.017969534 0.0658825
000050 89 3a bf 3b 97 fd e8 3d 07 dc 88 39 fa 38 8e 3d
       0.0058358354 0.113764934 0.00026103875 0.06944461
000060 26 da ef 3d 12 30 8a bc 97 a3 0b bd 67 ef 36 bd
       0.117115304 -0.016868625 -0.03409156 -0.044661906
000070 aa 7d 30 3c 71 21 85 3b fd 34 e5 37 b8 7d 69 bd
       0.010772148 0.0040628244 2.7323602e-05 -0.05700466
000080 03 e1 a1 3c c9 57 a7 3c 9d c1 5e 3d b7 83 d9 3b
       0.019760614 0.020427601 0.054383863 0.006638016
000090 d3 42 bb bd 07 2c 12 bc c1 32 97 3d 31 cb 2c 3c
       -0.09143605 -0.00892163 0.073827274 0.0105464915
0000a0 44 8d 5f 3d 6c 39 57 3d af 20 26 3d ce 95 f2 3d
       0.05457808 0.052544996 0.040558513 0.11844979
0000b0 a9 7b a8 3d f3 6e f9 bc 68 5f 1b 3d ed 4f ac bc
       0.08226711 -0.030448413 0.037932783 -0.021034205
0000c0 31 7c 22 3d 81 40 c3 bc c7 8b 34 bc d8 46 39 bb
       0.03966922 -0.023834469 -0.011019654 -0.0028270986
0000d0 87 4b dd bc b6 6f 80 bd 32 b1 77 3d fe 30 90 bc
       -0.027013553 -0.06271307 0.06047172 -0.017601486
0000e0 d5 6d 84 bd 73 05 1b 3d 85 ab 09 3d 94 70 8e 3c
       -0.06466261 0.037846994 0.03361084 0.017387666
0000f0 b8 cc 97 3b 16 fb e2 3d 2b 18 06 bd 15 93 75 bd
       0.0046325587 0.11083047 -0.032737892 -0.05995472

weight f4 [64, 64, 3]
000000 bd 02 c5 3c 90 c3 06 3d f1 b6 8b bd ce e7 6e 3c
       0.024049157 0.032901347 -0.06822003 0.014581634
000010 81 a5 b2 bb 65 91 27 3d 98 cc e8 bc 30 e8 75 3d
       -0.0054518585 0.040910143 -0.02841787 0.060035884
000020 2e 99 8b 3d 51 71 09 bd 72 5c d5 bc 3b 62 ae bb
       0.06816326 -0.033555333 -0.026045058 -0.0053217686
000030 71 2c 45 3b b6 1e 83 3d e0 aa cc bd f0 f7 f8 bd
       0.0030086304 0.06402342 -0.09993529 -0.12156665
000040 50 27 64 bd c1 08 9a bc 6e 87 16 3d 0a c7 f5 bc
       -0.055701554 -0.018803002 0.03675025 -0.030002136
000050 6f 47 9a 3d e4 17 9b 3b 49 70 a0 bc b3 12 77 bd
       0.07533156 0.0047330726 -0.019584792 -0.060320567
000060 4f 29 2e bd 2a 61 cb 3c e7 80 8a 3d 2f 8c 3d bc
       -0.042519864 0.024826605 0.067628674 -0.011569067
000070 d3 4a 05 3d d6 32 09 3d ad 4f 15 bd e5 93 56 3c
       0.03254206 0.033495747 -0.036452938 0.013096784
000080 8e 7b e7 bc 60 b0 6c bd ec 75 ad 3c d2 7a ac 3c
       -0.028257158 -0.05778539 0.021174394 0.021054659
000090 3f 30 44 3d 96 2d 99 bc 06 e3 b1 bd bb b5 d8 bd
       0.047897574 -0.018698495 -0.086858794 -0.10581537
0000a0 b9 94 30 bd 8f ec 1a bd 24 47 c4 bd 05 f1 ef bd
       -0.043110583 -0.037823256 -0.095838815 -0.11715893
0000b0 c5 e6 df 3c b4 35 45 bd 9e ca 97 bd b8 f8 08 bc
       0.02733172 -0.04814692 -0.07411693 -0.00836008
0000c0 07 7c 8f bd 57 c9 9f bc 04 26 d5 3d c7 40 7d 3d
       -0.07006078 -0.019505186 0.104076415 0.061829355
0000d0 7c 2c 1a 3b f1 76 41 bd bb 0e dc 3c 09 88 3f bd
       0.002352505 -0.047232572 0.026862493 -0.046760593
0000e0 10 e7 7c bd 91 6f a1 bd 60 54 f7 bc f8 f6 6f 3d
       -0.061743796 -0.07882608 -0.0301916 0.058585137
0000f0 4f 2e 4c bc 9a bf 4e bd 33 bb 29 bc 49 55 ee bc
       -0.012462213 -0.050475694 -0.010359573 -0.029093402
000100 16 61 17 3d 36 bf da 3d 9a 0c f3 bd ec 41 4c bd
       0.036957823 0.10681002 -0.11867638 -0.049867555
000110 ca f6 19 3d 19 f1 d3 bc 29 b9 75 bd fd c5 69 bc
       0.037588872 -0.0258718 -0.059991036 -0.0142683955
000120 39 9e 90 bd 5b 1f d4 bc ef d1 2b 3d 52 fd 39 bd
       -0.070614286 -0.025893858 0.041948255 -0.0454076
000130 21 f2 0e bd 7a d7 ec 3c d8 98 89 bd 16 46 cf bb
       -0.03489888 0.028911341 -0.06718606 -0.0063254936
000140 a6 99 c2 bd be 5c 7f 3c ee 03 8d bd 31 2a 9b bd
       -0.09501962 0.015586076 -0.06885515 -0.07576407
000150 9f d6 96 3c 61 25 f4 3d 24 ad 17 bd 6a 41 40 3d
       0.018412886 0.11921192 -0.037030354 0.046937384
000160 18 6c 85 3d ad e1 11 3d 86 0d 91 3c 1e c6 0a bd
       0.06514758 0.03561561 0.017706644 -0.033880346
000170 97 36 4b bd c1 6e f6 bc 78 ab 97 bc 99 6b 02 bd
       -0.049612608 -0.030082108 -0.01851438 -0.031840894
000180 3b 22 42 3d ba 55 98 bd 3f d7 c2 bb 67 f8 ca bd
       0.047395926 -0.07438226 -0.0059460695 -0.0991066
000190 d1 9c 69 3c 29 9f 61 3d 60 e3 9f bc e3 db a1 3d
       0.014258579 0.055083428 -0.0195176 0.07903268
0001a0 31 c3 5e bd 8a 36 72 3c 9d 4e b1 3d 21 50 2b 3d
       -0.054385368 0.014783511 0.086575724 0.041824464
0001b0 42 60 8d 3d 98 57 6d 3c f8 fd 2a 3c 83 4b 83 bd
       0.06903125 0.014486216 0.010436527 -0.06410887
0001c0 6e e1 76 bc fe 06 81 bd 2d 6c 1b 3d 44 4d 62 bd
       -0.015068395 -0.06300162 0.03794496 -0.055249467
0001d0 1a d3 0c 3c 83 e1 ab 3d fe 35 25 3d dc c2 1b 3c
       0.008595252 0.08392622 0.040334694 0.009506907
0001e0 24 2d 83 bd fb 60 3e 3d f6 d2 9e 3d c6 25 48 3d
       -0.06405094 0.046479207 0.07755081 0.04886415
0001f0 12 98 e0 bc 7a b4 06 3d 5d c6 24 3c db e1 82 bd
       -0.027416263 0.03288696 0.010057059 -0.06390735
000200 43 20 9a 3d 48 29 db 3d f8 0c 6d bd 38 40 28 3c
       0.07525685 0.10701233 -0.057873696 0.010269217
000210 66 ad 9b 3d ad 8b d2 3b cf 01 d5 bc 53 ac 91 bd
       0.076014325 0.006425342 -0.026001839 -0.07112946
000220 82 e4 b5 3c 93 45 be bc bd 53 53 3c c8 e1 b9 bb
       0.022203688 -0.023226535 0.012898383 -0.005672667
000230 b5 d6 22 bd 8d 93 ed bc ef 7f 0b 3c bd 64 43 bd
       -0.03975554 -0.029001022 0.008514388 -0.047703493
000240 52 e3 71 ba a5 02 8b 3d 20 7c 28 3d 65 02 fe bc
       -0.0009227294 0.06787614 0.041134 -0.031007001
000250 fc a4 1d bd 22 c6 d5 bd 5c 79 0d 3a 95 6b 72 bd
       -0.03848742 -0.104381815 0.0005396807 -0.05918463
000260 b1 82 29 bc dc 25 9a 3d 08 94 c2 3c 4c 4c 36 3d
       -0.010346101 0.07526752 0.023752227 0.044506356
000270 9e af 98 3d b7 19 89 3b 2d a8 21 3c 86 36 06 bd
       0.07455371 0.0041839737 0.009866756 -0.03276684
000280 1a 32 10 3d 14 a7 fa 3c f5 37 ac 3c 29 43 8a 3d
       0.03520403 0.030597247 0.021022776 0.06751091
000290 8f 97 61 3d cf 63 10 3d d3 17 38 bd ac 8c 4a 3c
       0.05507618 0.035251435 -0.044944596 0.01236264
0002a0 0e bb 27 bd fb 84 9e bd cb 94 89 bd 4d 20 55 bc
       -0.040949874 -0.07740208 -0.06717833 -0.013008189
0002b0 90 57 65 3c 94 ca af bd 85 f8 0f bd 7d ab 94 3d
       0.013997927 -0.085835606 -0.035149116 0.07259271
0002c0 8f bb 15 3d 32 12 86 bd 37 5c fb bd 8d d0 7d bd
       0.036555823 -0.06546439 -0.12273448 -0.061966468
0002d0 bf 92 69 bd e5 e6 fa bd c8 77 c2 3c 85 d3 bd 3d
       -0.057024714 -0.12251071 0.023738757 0.0926886
0002e0 f1 9f 75 3d 39 03 97 bc 21 d1 66 bc c2 d8 a2 bd
       0.059966985 -0.018434154 -0.014087946 -0.079514995
0002f0 3a c6 e1 3c 35 d8 73 bd 54 83 bd bb 81 05 85 3d
       0.027560342 -0.059532363 -0.005783478 0.064951904
000300 22 cb 8a 3c ac 60 46 bd ce 9e 87 3d 11 85 69 3d
       0.016942564 -0.048432037 0.066220865 0.057011668
000310 5f c4 e8 3d f0 3b d5 bc d4 f7 85 b9 16 22 02 3d
       0.1136558 -0.026029557 -0.00025552383 0.031770788
000320 aa ca f1 3a d5 4b 8f 3d 9e a5 89 bd af 53 95 3d
       0.0018447239 0.06996886 -0.06721042 0.07291352
000330 b6 c1 10 3b 35 25 aa bc 23 8c 5c bd 89 40 28 bd
       0.0022088117 -0.020769695 -0.053844582 -0.04107717
000340 c4 0e 4a bc 58 f5 44 bd 79 a1 ad bc 4e fe 0f bd
       -0.012332622 -0.04808554 -0.02119516 -0.035154633
000350 97 22 1c bc 5c aa 83 b8 18 27 03 bd 6f d4 29 bd
       -0.009529731 -6.278299e-05 -0.032019705 -0.041462358
000360 d3 37 f2 3b be 26 8d 3c 39 aa 2c bc 97 96 f2 3d
       0.0073919087 0.017230388 -0.010538631 0.11845129
000370 ca 7e 43 3d 8e 32 c1 bc 34 c1 86 3d d9 6d 5f 3d
       0.047728337 -0.023583677 0.06579819 0.05454812
000380 5d bf 94 bb f0 b9 dc bb 04 f1 a2 3d 90 9b 86 3c
       -0.004539414 -0.0067360327 0.07956126 0.0164316
000390 74 1f b5 bc e5 ae 38 3d 27 d6 3e bd d7 9e df 3c
       -0.022109725 0.045088667 -0.04659095 0.02729742
0003a0 fa 11 5c bd e3 f9 4e 3d c5 35 54 bd f1 de 87 bd
       -0.05372808 0.05053128 -0.05180909 -0.066343196
0003b0 92 61 83 3d 1d c4 cc 3d 5b c0 6b 3d 4c 2a 44 3d
       0.064150944 0.09998343 0.05755649 0.0478919
0003c0 87 51 b5 3c ea 9b dc 3c a3 f6 8e 3d c3 2f c3 3d
       0.022133602 0.026929814 0.06980636 0.09530594
0003d0 66 09 25 bd f1 e4 40 bd 81 30 7d 3c b3 1c 4d bd
       -0.040292166 -0.047093336 0.015453459 -0.050076198
0003e0 b7 9f 66 bd 00 f3 37 3c 36 55 ea 3d 39 18 c1 3d
       -0.05630466 0.011227369 0.11442034 0.09428448
0003f0 f7 45 bc 3d d4 3c 54 bd ba 3e b9 3c 51 da 23 bd
       0.09193032 -0.051815823 0.022612918 -0.040003125

bias f4 [64]
000000 c4 1a 97 3d 03 d9 6f 3d 9f f0 96 bd 56 9a 05 bd
       0.07378152 0.058556568 -0.073701136 -0.03261789
000010 91 87 53 bd b7 4c fa 3c c2 88 21 3c bc 7c 61 3b
       -0.051642958 0.030554159 0.009859266 0.0034406623
000020 f8 d8 1f 3d be 06 80 3d cb f7 81 3d ea ca 44 3c
       0.039025277 0.06251286 0.06346091 0.012011269
000030 84 e0 7a bd df 57 90 3b 54 e8 87 3d 66 d5 85 3c
       -0.06124927 0.0044050063 0.0663611 0.016337108
000040 67 c7 83 3d 91 12 50 bc 63 c8 13 3b ea 28 88 3d
       0.06434517 -0.012699739 0.002254986 0.06648429
000050 2e 4a 2e 3d 83 db 55 bd 49 12 fe bb 4e 3d cf bc
       0.042551212 -0.052211296 -0.0077536446 -0.025297787
000060 bc 11 1f bb 8b 5b 1d 3d 77 f3 8d bd 07 76 29 3d
       -0.0024272045 0.03841738 -0.06931203 0.041372325
000070 c3 26 c2 3d 09 01 77 3c b5 ed ba 3d b6 20 41 bb
       0.094800495 0.01507593 0.0912737 -0.002946896
000080 51 80 34 3c 59 e2 8c ba 86 73 13 3d d2 d1 23 3d
       0.011016921 -0.0010748609 0.035998844 0.039995022
000090 79 f6 54 bd d2 a2 89 bc e6 b1 7f bd e6 d8 80 3b
       -0.051992867 -0.016801272 -0.062425517 0.0039321063
0000a0 36 3e d0 bc 1e 5e bc bc 82 17 3b bd 9c 9b 33 bd
       -0.02542029 -0.022994097 -0.045676716 -0.043849573
0000b0 0d 8f 97 3d de 68 58 3d 25 95 bd bb 20 b9 8e bd
       0.07400332 0.052834384 -0.0057856017 -0.069689035
0000c0 05 30 14 3c 16 6d 36 bd 55 2c 43 3b 6e c9 7c 3c
       0.009044652 -0.044537626 0.0029781063 0.015428884
0000d0 34 ce be ba 0f ac 6e 3c bd f4 0e bc 7b 1d 5d 3b
       -0.0014557303 0.014567389 -0.008725342 0.0033739496
0000e0 30 dd a8 3c 1c e6 13 bb a5 4b e5 3c 54 67 23 bc
       0.020613283 -0.0022567576 0.027990172 -0.009973366
0000f0 1f 19 f8 bc c4 b1 84 bd 8b 64 de 3c e9 99 25 bc
       -0.030285416 -0.064792186 0.027147552 -0.010107496

weight f4 [128, 768]
000000 49 42 a3 bc 72 3c 67 bd 2d e1 e6 bc 85 01 db bc
       -0.019929068 -0.05645413 -0.028183544 -0.026734123
000010 7b 68 62 bd 7a fb 3c bd b0 8b 40 bc 9d b1 32 bd
       -0.05527542 -0.046138264 -0.011752054 -0.043626416
000020 29 de bf bc fc e3 f9 bb 09 dc 62 3c cf 93 ef bc
       -0.023421364 -0.007626055 0.013846406 -0.029245285
000030 e6 01 30 bd 07 69 7d 3c 4a b5 e8 bb 97 13 87 bc
       -0.04297056 0.015466935 -0.0071016895 -0.016488833
000040 47 75 92 bd c9 96 fc bc 53 88 12 bd 51 17 6e bd
       -0.07151275 -0.030833619 -0.03577454 -0.058127705
000050 f1 ea 09 bd 8c f7 9b bd e1 07 bc bd 0b eb b1 bc
       -0.033671323 -0.07615575 -0.0918119 -0.021718523
000060 66 5a 55 bc 18 48 ae bc df 2f 01 bd 6f cc 14 3c
       -0.013022041 -0.021274611 -0.031539794 0.009081944
000070 f1 cc f8 38 98 ab b1 bc bc 98 01 bb 11 58 09 bd
       0.00011863735 -0.021688268 -0.0019774875 -0.033531252
000080 4f 0c 0e bd f4 8b 13 3c 82 61 00 3c 0e ea 05 3d
       -0.034679707 0.009005535 0.007835748 0.032693915
000090 3c 98 3e bd 21 b2 d9 bc cd fd 61 3b dd c6 df bc
       -0.0465319 -0.026574196 0.0034483552 -0.027316505
0000a0 03 38 a2 3c 71 48 54 3c 3d 2f 81 3c 10 36 1e bb
       0.0198021 0.0129567245 0.015769595 -0.002414111
0000b0 09 7e d0 ba 6e 26 5b 3c 44 e2 45 3b 11 53 1f bd
       -0.0015906702 0.013375862 0.003019468 -0.038897578
0000c0 50 45 2c bb 30 61 16 3b a0 40 9b ba 9c f8 04 3d
       -0.002628643 0.0022946112 -0.0011844821 0.032463655
0000d0 c0 51 4d 3c e5 00 8b bc 44 7b 9b 3c 24 b8 17 3c
       0.012531698 -0.0169682 0.018979676 0.009260211
0000e0 d2 4d b8 3c 37 f2 0b bd 00 04 23 38 ac 3c 01 3c
       0.022498045 -0.03416654 3.8865954e-05 0.007888
0000f0 f1 0f f8 3c bb 70 39 bd 5c d8 4c bb 83 90 e1 ba
       0.030281039 -0.045273524 -0.003125689 -0.0017209206
000100 8b 47 3f 3d 31 f8 6b 3c 4f 57 c4 3b 2d d2 2c bc
       0.046699088 0.014402435 0.0059918533 -0.010548157
000110 e1 d6 26 bc 66 1d b7 3c 63 9a c2 bc 98 0a f4 3c
       -0.010183067 0.022352885 -0.023755258 0.029790208
000120 91 5b 6e bc d6 bd 5c bd 11 35 6f bd cc e4 b5 3c
       -0.014548198 -0.05389198 -0.058400217 0.022203825
000130 e6 6a 6f 3d c6 5c 4b 3d 9e 53 6c 3d 77 01 05 3d
       0.058451556 0.049649023 0.05769693 0.0324721
000140 97 e2 cc 3c 10 66 1b 3c 4b dc 4f 3d fb 87 07 bc
       0.02501039 0.009484783 0.050747197 -0.008272166
000150 13 8a c0 bc 85 f2 31 bd b7 0a 50 bd ca fe 0f bd
       -0.023503339 -0.043444175 -0.05079147 -0.035155095
000160 f3 58 fe 3c fd 2d 3c 3d 57 ae 2f 3d a1 ce 13 3d
       0.031048274 0.045942295 0.042890873 0.03608573
000170 e8 98 2f 3a 10 b6 bf bc c4 e5 10 bc 69 59 8a 3c
       0.0006698505 -0.023402244 -0.008843843 0.016888337
000180 0d a7 81 bd df 77 14 3d a6 3c c7 bc 34 ad 9f 3c
       -0.063306905 0.03624713 -0.024320912 0.01949177
000190 42 e0 9b 3c 8e 65 23 3d 12 34 0d bc ed 47 27 3d
       0.019027833 0.039891772 -0.008618372 0.04084008
0001a0 cd 53 3d bd 0c 67 b8 bb d9 73 6c bc 73 1c e4 bc
       -0.046222497 -0.0056275185 -0.014431917 -0.027845597
0001b0 83 97 56 bd 34 12 1b bd 1b 62 a5 bc e8 c4 16 bc
       -0.052390587 -0.037859157 -0.020188382 -0.00920222
0001c0 ea 67 a2 bc b5 37 23 3d 57 05 29 bd ee 20 78 3b
       -0.01982494 0.03984805 -0.041264858 0.0037861424
0001d0 2a 11 15 bd 82 f5 33 bd 3a a1 0b ba 4c 63 de bc
       -0.036393322 -0.043935306 -0.0005326454 -0.027146958
0001e0 ba 55 5c bc e8 dc ee bb 9d 9e 92 bc 49 13 be 3a
       -0.013448173 -0.0072895177 -0.017897898 0.0014501597
0001f0 03 44 2b 3d 2a 4f 02 3d 20 d5 2c 3d 31 82 19 3d
       0.041812908 0.031813778 0.04219544 0.037477676
000200 6b 63 49 bc 54 43 9b 3c 48 f3 bb bb dc bb be bc
       -0.0122917695 0.018953003 -0.0057357885 -0.023282938
000210 03 e8 e9 bd 25 35 94 bd 60 a9 a2 bd ba 98 48 bd
       -0.11421206 -0.07236699 -0.07942462 -0.048973776
000220 b5 5e 05 bd b3 4e b0 3b cf fe 88 bd 1a 8b 47 3c
       -0.032561023 0.0053804754 -0.06689226 0.0121791605
000230 c0 a9 23 bd d3 f9 15 bd df 75 dd bd 01 8e 01 be
       -0.039956808 -0.036615204 -0.10813498 -0.12651826
000240 48 d8 fa bb 9d 69 15 3d f0 81 50 3b 74 13 d3 3c
       -0.0076551773 0.036477674 0.003181573 0.025766112
000250 d8 a3 4a 3c 60 8c 1e bc 26 03 d6 bc 10 21 f5 3b
       0.012368165 -0.009677023 -0.026124548 0.007480748
000260 a4 43 08 3d 3a d6 0b bc 82 c1 c1 3c 30 11 33 3b
       0.033267632 -0.008534962 0.023651842 0.0027323477
000270 bb 05 36 bd e9 1e a0 bc 2b 6e 07 3d 76 2e cc bc
       -0.04443906 -0.01954599 0.03306405 -0.024924498
000280 72 e9 25 3c 54 c3 0c 3d 18 c9 df 3c c5 06 d7 bc
       0.0101264585 0.034365967 0.027317569 -0.026248345
000290 75 5d 94 bb 3e 51 8b bd 7a 83 d0 bb 4f 7f 2e bd
       -0.0045277425 -0.06802605 -0.0063633295 -0.04260188
0002a0 91 bc 45 bd 2d 5e 70 bd 5e 5f 38 bd 66 17 24 bd
       -0.048275534 -0.058683563 -0.045012824 -0.040061377
0002b0 94 f0 c9 bd 65 9e 8e bd 7a 7d 3d bb 6a b2 c9 bc
       -0.0986034 -0.06963805 -0.0028913901 -0.024621207
0002c0 ed 5d b5 bc 13 1a 38 3c 74 a2 a8 3c 56 f8 14 bd
       -0.022139514 0.011236685 0.020585276 -0.036369644
0002d0 7e d7 7f 3c 4a 10 58 3b 68 c2 b3 bc 9d 64 01 bd
       0.015615342 0.0032968693 -0.021943286 -0.031590093
0002e0 f3 d6 3d 3c 8d ad 69 3d 04 82 fc 3c 48 80 22 3d
       0.011586892 0.057050277 0.030823715 0.03967312
0002f0 b1 9a 31 3d e5 9c 9d bb c6 51 43 bc 5e 5c 42 3c
       0.043360416 -0.004809963 -0.011921352 0.011862842
000300 41 11 9a bc 74 d5 76 bb 52 a3 51 bd 26 b7 7f bd
       -0.018807055 -0.003766385 -0.051181145 -0.062430523
000310 48 7b 58 bd f4 fa 38 bd cc ec 2c bd 02 56 45 bc
       -0.052851945 -0.045161203 -0.042218015 -0.012044432
000320 db 61 ce bc dd c8 b9 bd b2 1d 46 bd 4d a0 a9 bd
       -0.025193145 -0.09071515 -0.048368163 -0.08282528
000330 cf 09 66 bd 31 ff 04 3d d8 0e 83 bc c1 b0 1f bb
       -0.056161698 0.032469932 -0.015998289 -0.0024366828
000340 46 23 0a 3d 16 e5 42 3b 65 6a 4c bc 99 94 e3 bc
       0.033725046 0.0029738597 -0.012476538 -0.027780818
000350 d3 99 c8 3c 09 b4 6d bc 03 41 5a bd cd 98 39 3c
       0.024487412 -0.014508256 -0.053284656 0.011327934
000360 a9 6c 2e bd fe a4 c6 3c d8 67 22 3c 19 92 15 3d
       -0.042584095 0.024248596 0.009912454 0.036516283
000370 23 48 ae bc b4 82 14 3d 75 66 99 bc 14 b5 c1 bb
       -0.021274632 0.03625746 -0.018725613 -0.005911479
000380 24 88 90 3c 75 2e 00 3d 42 75 a6 bc 88 d3 9b bc
       0.017643042 0.031294305 -0.020319585 -0.019021764
000390 04 4b 4f bb a2 8c 2d bd 85 09 3a bc 49 9a 14 3d
       -0.0031630406 -0.042370446 -0.011354809 0.03627995
0003a0 51 9b a3 3c a8 d0 ed 3c d0 47 84 3d ba 76 ca 3b
       0.019971522 0.02903016 0.0645901 0.006178704
0003b0 5d 33 c0 3c a5 a3 58 3d c7 30 84 3c 99 68 48 3d
       0.023461992 0.05289044 0.01613654 0.048927877
0003c0 89 d2 fb bc 7b 6d df 3b e8 54 ee bc 3a a0 58 3b
       -0.03074004 0.006818471 -0.02909322 0.0033054487
0003d0 a2 bc 93 3c 00 69 29 3d c7 7a 10 3d a5 c0 27 3c
       0.018034283 0.0413599 0.03527334 0.010238801
0003e0 69 87 8d b9 7d 2d ec 3c 5a 4d ef bc ec f2 2f 3c
       -0.00026994504 0.028830284 -0.029211689 0.010739069
0003f0 59 e0 ab bc 83 27 75 3c d6 f7 e8 3b 58 f3 62 3c
       -0.020981 0.014963034 0.0071096225 0.013851963

bias f4 [128]
000000 ee 06 93 3b 6d 16 27 bd 42 d2 39 3c bf 2d 14 bd
       0.00448691 -0.04079287 0.011341633 -0.03617644
000010 77 23 4b bd a0 8f f8 bc e6 e2 cc bb 72 25 1c bd
       -0.04959437 -0.030341923 -0.0062526343 -0.038121648
000020 40 13 46 bc 23 d4 11 bd 5e 33 66 bd 9f a9 9d bc
       -0.0120895505 -0.0356027 -0.05620133 -0.01924592
000030 a5 58 06 bd a9 28 87 bc 05 53 6f 3c 27 58 ea bc
       -0.03279938 -0.01649888 0.014607196 -0.028606487
000040 9a 4d 1f 3e f0 83 23 3e ba d6 ba 3b f5 f5 fd 3b
       0.15556946 0.15968299 0.005701867 0.0077502676
000050 76 d7 2b bc fc 24 20 bc 1e 33 3a bc 46 05 76 3c
       -0.010488382 -0.009774443 -0.011364726 0.015015906
000060 c9 56 2d ba ba 97 64 bd 6d 97 0c bd 9a 0d 10 bd
       -0.0006612358 -0.05580876 -0.0343241 -0.03516922
000070 12 e9 9b 3c c4 0f e3 bb dc cd b0 3b 2e fd b0 3c
       0.019032035 -0.0069293696 0.005395634 0.0216051
000080 f8 65 c0 bc 87 ea ed 3b 86 3d ad bc af 11 aa 3b
       -0.023486122 0.007260624 -0.0211475 0.0051900963
000090 1a 7e 2f bb 55 d5 c0 bc c7 e5 2e bd c7 bd 93 3c
       -0.0026778043 -0.023539225 -0.0426996 0.018034829
0000a0 3d 79 2a bd 40 d9 29 bc ed 0f 0b 3c 10 42 ee 3c
       -0.041619528 -0.010366738 0.008487684 0.029084235
0000b0 6a 00 f5 3b fe 48 0a bd bc 88 07 bd 6a ea 0f 3c
       0.007476856 -0.033761017 -0.033089384 0.008783916
0000c0 98 1c 46 bd 36 47 af bb f0 96 ca bc 8a e9 a8 3a
       -0.048367113 -0.005349065 -0.024730176 0.0012886983
0000d0 f7 de 84 bb d3 1a ae 3b 48 a9 92 bc 65 80 ae 3c
       -0.0040549 0.0053132563 -0.017902985 0.021301458
0000e0 bd cb 95 bc 93 b7 ec bc d3 67 25 bd 78 1b 09 bd
       -0.018285627 -0.028896129 -0.040382218 -0.033473462
0000f0 51 1a f5 3c 39 95 df bc c4 82 d2 bb c5 3b d3 bc
       0.029919775 -0.027292835 -0.00642428 -0.025785336
000100 b0 37 2d bd a8 b1 43 3b e3 ab 47 3c a2 7d ec 3b
       -0.042289436 0.002986053 0.012186977 0.007217125
000110 70 2f 18 bd 17 db d6 bc b0 e2 0a bc 82 6b 86 bb
       -0.037154615 -0.026227517 -0.008476898 -0.0041021714
000120 b7 51 2d 3d 7a 70 83 bc b9 17 31 bd 91 5b bc bb
       0.042314257 -0.016044844 -0.043235514 -0.0057482203
000130 45 e0 99 3c ab 81 fa bc 19 4c 79 bc 6c 65 30 bc
       0.018783698 -0.030579409 -0.015215897 -0.010766368
000140 97 a6 73 bd bb 54 d3 bc b0 42 1c bc 63 78 9a bc
       -0.059485044 -0.025797239 -0.009537384 -0.018856233
000150 61 8c 89 3a 9f 29 99 bc c4 d4 67 bb f5 de 48 bc
       0.0010494107 -0.018696604 -0.003537462 -0.012260188
000160 8d 0b 29 3c ad dd 31 bd f5 e1 ed 3c d7 4b 5e 3c
       0.010317695 -0.043424297 0.029038409 0.013567886
000170 d1 44 57 bd f5 25 26 bc a6 cf 5e bb f8 64 93 bc
       -0.052555863 -0.010140886 -0.003399828 -0.017992482
000180 0c d4 14 bd f0 19 21 bd 44 6f b0 bc e9 54 ed 3b
       -0.036335036 -0.039331377 -0.02153743 0.007242788
000190 73 54 0a bd 19 5c 8f bc cf 29 05 bd d9 d7 cf bc
       -0.033771943 -0.01749997 -0.032510575 -0.025371479
0001a0 34 34 2e 3d aa 21 0b bd 6c 0b d8 bb a2 79 7f 3c
       0.042530254 -0.03396765 -0.0065931585 0.015592964
0001b0 40 0d 22 bc 6d ad 9a bc 4f 32 fb 3c 00 40 63 bc
       -0.009890854 -0.018881524 0.030663637 -0.013870239
0001c0 61 1f 25 3c e4 b0 2f bd 59 be 68 3d e7 63 13 3c
       0.010078282 -0.042893305 0.056822155 0.008995987
0001d0 77 ca 00 bd fa f3 72 bc 3f 75 1e bd 6b 27 14 bc
       -0.031443086 -0.014828676 -0.038686033 -0.009042601
0001e0 0a cc 94 bc 64 0f 85 3c 93 29 61 3c 81 45 63 3c
       -0.0181637 0.01624269 0.013742822 0.0138715515
0001f0 4e 14 01 bd 7a 2b 25 bd 67 bc 06 bd 81 78 f5 3c
       -0.031513505 -0.040324666 -0.03289452 0.029964687

weight f4 [4, 128]
000000 7a 83 bb bd 60 9f cb bd 38 19 8d 3d d9 3b 00 be
       -0.091559365 -0.09942508 0.06889576 -0.1252283
000010 4e ff e6 3d c5 5e 39 3e 1c 3d db 3d b3 5b 94 3d
       0.11279164 0.18102558 0.10705015 0.07244053
000020 fb 5b ab bd d2 8f 96 bc 13 4a 1a 3d 42 b0 55 3d
       -0.08367153 -0.018379126 0.0376683 0.052170046
000030 3d 5f 17 be a1 95 98 3d ea dd 54 be ce 93 09 3e
       -0.14782424 0.074504144 -0.20787778 0.1343529
000040 46 5a 1d be ab 5c 11 be ac 9c 47 3d e3 72 2a be
       -0.15366468 -0.14195506 0.0487334 -0.16645388
000050 52 a4 fd bd d6 bc aa 3d a2 05 28 be 70 4f 05 bc
       -0.12384857 0.08336799 -0.16408399 -0.008136615
000060 09 4f 9e bd 98 3e 82 3d 0a 07 56 be 40 71 49 bd
       -0.077299185 0.06359595 -0.20901123 -0.04918027
000070 a0 3a 65 bd 92 f7 64 3d 23 34 1c 3c 70 49 34 bc
       -0.055964112 0.055900164 0.009533915 -0.011003837
000080 ae ba b8 bb c6 36 be 3d 95 96 fa bd 3d a3 35 bc
       -0.0056374883 0.09287791 -0.122357525 -0.011086282
000090 b1 58 86 3d db 37 1b bd ac 22 ad 3d a9 2d ae bd
       0.06559885 -0.037895065 0.08453879 -0.08504803
0000a0 4a 63 b8 bd 04 c8 99 3d 61 8f 0e 3e ad 3d 9a 3d
       -0.09003313 0.07508853 0.13921882 0.07531295
0000b0 0c 0c 27 3d ff e0 1e be 1d dc d2 3d 7b 4f af 3d
       0.040782973 -0.15515517 0.102958895 0.085600816
0000c0 7e 62 da 3c 7d bc 80 bc 16 86 18 bd 8f a5 05 be
       0.026658293 -0.015714878 -0.03723725 -0.13051437
0000d0 e8 43 8e bc 0f 16 53 3d 9d 80 11 3d 06 d6 60 bd
       -0.017366365 0.05153471 0.035523046 -0.05489161
0000e0 65 df ba 3d 70 84 27 3d e0 7a 0e 3c 82 ea 9e bd
       0.091246404 0.040897787 0.008696288 -0.077595726
0000f0 e8 a3 1f bc 32 f5 8e 3d e1 0e fc 3d c2 18 3c 3d
       -0.009743668 0.06980361 0.123075254 0.04592205
000100 17 45 c9 bc eb 4d 33 bc dc c8 94 bd f6 be e5 bd
       -0.024569077 -0.01094387 -0.072648734 -0.112180635
000110 ed 7a be 3d e2 46 b4 3d 16 a1 d7 bc 1a 64 f5 3d
       0.0930079 0.08802582 -0.026321929 0.119819835
000120 47 76 99 bd e4 68 23 bd 72 27 fb 3d 22 93 3a be
       -0.07493263 -0.039894953 0.12263383 -0.18220189
000130 0b cc 94 3d 78 6e a6 3d aa c6 6f 3d a0 fd 4f 3d
       0.072654806 0.08126539 0.05853907 0.050778985
000140 b4 de c6 3d 96 c0 53 bc cd 63 1a 3e a6 0d 31 3d
       0.09710446 -0.012924334 0.15077133 0.043225907
000150 1f d5 98 3d bb 8f 2e 3e a4 23 28 bd 49 cb cc 3d
       0.074625246 0.17047016 -0.041049615 0.09999711
000160 fc ef ce 3d 90 56 18 3d a4 e3 5b bd c0 68 bb bd
       0.10104367 0.037191927 -0.053683892 -0.09150839
000170 31 d2 ac bb 4c b0 d1 bd 95 75 ed bc 75 b1 cd 3d
       -0.00527408 -0.10238704 -0.028986732 0.10043613
000180 4f 23 e3 3d bc cd 0b 3d 5e 2d 61 3d 91 e3 bd bd
       0.11090719 0.03413175 0.054974906 -0.092719205
000190 80 0b d7 bc 95 d5 46 be 92 f6 5c bc e8 df e8 bc
       -0.0262506 -0.19417413 -0.013486521 -0.02842708
0001a0 21 20 3d be 4d 69 9e 3c 21 c3 c6 bd f4 49 36 bd
       -0.18469287 0.01933732 -0.09705187 -0.04450412
0001b0 2c 6c e5 3d d7 60 0f 3e 6b f7 75 bd 72 dd ef bc
       0.11202273 0.14001785 -0.06005041 -0.029280398
0001c0 11 cc 99 3d aa 9c 01 3e 6f 85 4f be 69 77 22 bc
       0.07509626 0.12657419 -0.20265745 -0.009916165
0001d0 76 25 ca 3d d6 d4 47 bd 9f cb 62 3d 3f f0 75 3d
       0.09870426 -0.04878696 0.05536997 0.06004357
0001e0 fe 5e a1 bb 5f c9 10 bd 62 a9 b8 3b 5f 85 f9 3d
       -0.004924654 -0.035348292 0.0056354264 0.12183642
0001f0 55 be af 3d 43 64 e5 bd d6 96 4f 3d 3c 8c 8b 3d
       0.08581225 -0.11200764 0.050680958 0.06813857
000200 e1 d2 78 bd cf 3f 48 be f1 56 bd 3d 6f f9 2c be
       -0.060747985 -0.19555591 0.092450984 -0.16892026
000210 57 97 28 3e 77 31 86 3d 72 04 83 3d 4e 71 72 bd
       0.16463982 0.065524034 0.06397332 -0.059190087
000220 70 2b dc bb 93 47 86 bd 95 9e 22 bc c3 15 55 bd
       -0.0067190453 -0.065566204 -0.009925504 -0.052022707
000230 09 1a 42 be ae cf 0f 3d 41 37 b2 bd 1d 33 08 3e
       -0.18955244 0.03511017 -0.08701945 0.13300748
000240 6d 1a c4 bd fa e6 43 be c4 50 41 3d 2e 10 18 be
       -0.09575353 -0.1913108 0.047196165 -0.14849922
000250 49 34 98 bd d0 27 4b bc 26 21 28 be a2 4a a5 bd
       -0.074318476 -0.012399629 -0.16418895 -0.08070876
000260 19 ab 2a be fc 13 21 3e a2 4f 49 be 04 59 13 bd
       -0.16666831 0.1573028 -0.19659284 -0.035973564
000270 26 49 52 bd 73 58 3c 3d 16 2d 8a bd c9 44 33 3b
       -0.05133929 0.04598279 -0.06746881 0.0027354232
000280 22 1a af bd cd 27 03 bb 9e 82 6c be ef 71 bc ba
       -0.08549906 -0.0020012737 -0.23096702 -0.0014377217
000290 eb d7 80 3d 4a 13 b2 bd cc c5 b8 3d 35 e0 c2 bd
       0.06291183 -0.08695085 0.09022102 -0.0951542
0002a0 fa ac 40 3c 17 93 8b 3d 4f ed f1 bc 76 f0 98 3d
       0.011759991 0.068151645 -0.029532103 0.07467739
0002b0 e9 8c 80 ba c9 ae 10 be c4 a2 cf 3d 2b e1 bb bc
       -0.000980762 -0.14129175 0.10138467 -0.022934517
0002c0 a9 71 c1 bc 59 bd 6c bc b0 f9 45 bc c6 35 dc bd
       -0.023613768 -0.014449441 -0.012083456 -0.10752444
0002d0 45 20 1f bd 5b 9b 3d 3d 33 0f b9 bb 46 7f c4 3c
       -0.038849134 0.046290737 -0.005647564 0.02398647
0002e0 35 af 26 3e 0c 3f 89 3d 8f 66 89 3d 2e 6c 85 bd
       0.16277774 0.06701478 0.067090146 -0.06514774
0002f0 46 44 2f 3d cc af da 3d 59 09 69 3d d8 f2 05 3c
       0.04278972 0.10678062 0.05689368 0.008175574
000300 d9 ae 09 bd cc 31 f6 3c be e8 f3 3a f6 e8 76 3d
       -0.033614013 0.030053042 0.0018608791 0.060280763
000310 5d ab 23 3e 76 e7 3e bd 87 df 2a bd fb 50 52 3e
       0.15983339 -0.046607457 -0.04171708 0.20538704
000320 80 11 5a bd 77 de d5 3d f8 19 cb 3d 2f df 32 be
       -0.053239346 0.104428224 0.099170625 -0.1746795
000330 48 a7 d9 bc 79 d2 61 bc dc 38 b9 3d 1b d9 f0 3d
       -0.026569024 -0.013783091 0.09044048 0.117601596
000340 c2 e7 c8 3d b8 01 ec 3d 8f 00 1b 3e 26 80 94 3d
       0.09809829 0.11523765 0.15136932 0.07251005
000350 81 17 a9 3d 7f 8f c9 3d 55 5d b1 3d 78 6c 7f 3d
       0.08256436 0.09841823 0.0866038 0.062359303
000360 65 1a e6 3d 61 95 39 bd 41 11 95 bd 42 e9 dc bc
       0.11235503 -0.045308474 -0.072786815 -0.026966695
000370 a5 65 b6 3d 70 f2 a1 bd 00 da 2a 3d 5d 87 a4 3d
       0.08906106 -0.079075694 0.041711807 0.08033631
000380 45 c1 e7 3b b5 7c 0f bd 83 96 54 bd a1 d3 30 bd
       0.0070726 -0.03503104 -0.05190135 -0.043170575
000390 0b cf 93 3d d3 07 ce bd dc ba a6 bd 6c 1d 67 3d
       0.07217225 -0.10060086 -0.08141109 0.056424543
0003a0 f4 4c 53 be 24 57 9c 3d e4 00 a9 bd 9c aa 17 3d
       -0.20634824 0.07633808 -0.08252123 0.03702794
0003b0 55 3c c6 3d 69 47 df 3d 2c c7 86 3a ee 07 48 be
       0.09679476 0.10902292 0.0010282747 -0.19534275
0003c0 c5 67 21 bd d0 e5 48 ba 53 18 21 be 14 1e 95 bd
       -0.039405603 -0.0007663639 -0.15731935 -0.072811276
0003d0 22 a0 f6 3d 52 55 a8 3d 2b a0 98 3d 18 bd 82 bd
       0.12042262 0.082193986 0.074524246 -0.06383723
0003e0 7d 89 8b 3b 43 87 85 bc dd 0c 9c bd e3 3b b0 3d
       0.0042583332 -0.01629985 -0.07619641 0.086051725
0003f0 40 a6 a1 bd 3f 31 2d 3d 1b ae 8a 3d 62 85 52 bd
       -0.07893038 0.042283293 0.06771489 -0.051396735

bias f4 [4]
000000 c9 43 07 be 98 22 c7 bd 27 07 ff 3b e8 f4 cc bd
       -0.13209452 -0.09723395 0.007782835 -0.1000765
