pretrained_model/current_model_25000.pth (torch_old, 496659 bytes, 10 tensors)

weight f4 [32, 4, 8]
000000 99 24 2d be c2 66 50 bc e7 4e 9e 3d 16 b7 2a 3e
       -0.16908492 -0.012719812 0.07729893 0.16671404
000010 14 08 0c be d3 2c 30 3d 33 51 a2 3d 78 e1 fd bd
       -0.13674957 0.043011498 0.07925644 -0.123965204
000020 bc 51 66 3d 9e ff 2f be 82 73 17 bc 39 33 14 3e
       0.05623029 -0.17187354 -0.009243848 0.14472665
000030 5b b9 4a 3e 31 9e ed 3d be f7 ce bd 11 8e 44 3e
       0.1979727 0.11602438 -0.10105847 0.19194819
000040 e2 f9 59 be ef 53 2f bb 4c 56 2f bd 02 87 8d bc
       -0.21286729 -0.002675291 -0.04280691 -0.01727629
000050 9d fc 21 3d 9b c1 88 3b fd 83 eb 3d fa 3f e0 3d
       0.03954755 0.00417347 0.11499784 0.109497026
000060 1a d5 b5 ba 4c 95 f2 bd a3 6a eb bd 03 bc c3 bc
       -0.0013872713 -0.11844882 -0.11494949 -0.023893362
000070 0c ec 12 bd f7 d0 09 be 74 0b 17 3e dd 03 34 bd
       -0.035869643 -0.1345862 0.14750463 -0.043948997
000080 05 84 34 3c 08 cc 0b 3e b5 93 3d 3e cc 2d 03 be
       0.011017804 0.1365205 0.18513377 -0.12810439
000090 9f 88 29 3e ac d9 06 3e 1a 54 8c bd be f0 7a 3d
       0.16556023 0.13168973 -0.068519786 0.061264746
0000a0 3e 93 38 be 34 e8 30 3e b7 3b 47 3e 6a 6e bf bd
       -0.18024918 0.17276078 0.19456373 -0.09347232
0000b0 1d 54 ce 3c 07 2f 1d be 24 ec 51 bd f0 04 be bd
       0.025186593 -0.15349971 -0.051250592 -0.092782855
0000c0 21 08 3c bc cf 71 1e be 19 18 25 3e 93 c0 46 3e
       -0.011476547 -0.15473102 0.16122474 0.19409399
0000d0 d9 1d 14 be 8c 82 6c 3d 23 c4 89 bd ac 57 6b 3c
       -0.14464511 0.057741687 -0.06726863 0.014364164
0000e0 b1 ec e6 bd 4f ac 1b be 38 6b 79 bd 8d 77 7f bd
       -0.11275614 -0.1520245 -0.060893267 -0.062369872
0000f0 f5 f3 1f be d0 b0 ec 3d 56 2a d4 bd 86 b2 1f 3e
       -0.15620406 0.11557162 -0.103596374 0.15595445
000100 71 46 81 3d de 3a 0b 3e e5 54 36 be 4c 00 32 be
       0.06312264 0.13596675 -0.17805822 -0.17382926
000110 44 99 b3 3d 01 59 09 be 2d 55 98 3d 9f 41 0d 3e
       0.087694675 -0.13412859 0.07438121 0.13794564
000120 63 06 db 3d 93 80 21 bd 5d 26 a8 3c 10 47 02 bd
       0.106945775 -0.03942926 0.020526106 -0.03180605
000130 80 9f 2a 3e e1 7c 23 be c3 59 a0 bd c8 30 7d 3d
       0.16662407 -0.15965606 -0.07829621 0.0618141
000140 bb 85 51 3c e5 66 19 3d f2 e3 93 bd ad cb b5 bd
       0.0127882315 0.037451643 -0.072212115 -0.08876739
000150 3f 1d ea 3c 28 19 c4 3d 41 cf e9 b7 eb 60 24 3e
       0.028578399 0.09575111 -2.7872275e-05 0.16052596
000160 9d e1 e8 bd c2 10 c1 bd 7e 55 f4 bd 58 b6 bc bb
       -0.11371157 -0.094270244 -0.11930369 -0.0057590418
000170 ba a0 13 3e 8f 2d b8 b9 27 ca 2a be 2c c8 75 bc
       0.14416781 -0.0003512916 -0.16678677 -0.015001338
000180 3f 9f 09 3e 6f 0c 15 bb ec a3 bc 3c e3 07 15 3d
       0.13439654 -0.0022743007 0.023027383 0.036384474
000190 05 c1 40 be af f6 69 bd d8 19 82 bc 29 f8 4a 3d
       -0.18823631 -0.05712002 -0.015881464 0.04955307
0001a0 b4 0a f1 3c a6 77 0a 3d 7d 51 49 bd e0 17 de bd
       0.029424049 0.033805512 -0.04914998 -0.108443975
0001b0 60 a5 7a be 86 b6 d9 bd d2 3e fe bd f0 62 ee bd
       -0.24477148 -0.10630517 -0.12414326 -0.116399646
0001c0 b3 10 97 3c b6 7c ae bc 8f 39 c6 3d fe 0f b9 bd
       0.01844058 -0.021299701 0.09678947 -0.090362534
0001d0 df 41 6b 3c bd 85 9f bd 37 49 dc 3d b2 e6 db bc
       0.014358967 -0.077891804 0.10756152 -0.026843403
0001e0 1f fd 85 bc 99 60 37 3e ee 2a 1f 3e 56 72 b2 3d
       -0.01635605 0.17907943 0.1554372 0.08713214
0001f0 ab 6a 60 ba 5f 1f 12 3e 45 8f 9b 3b f8 0b 01 3e
       -0.00085608166 0.1426978 0.0047473037 0.12602222
000200 ef 38 24 be 90 96 34 be 39 08 28 3e 00 5f 1e bc
       -0.16037343 -0.1763556 0.16409387 -0.009666204
000210 32 6d b1 bd f2 f9 ad 3d 46 89 30 3e eb f6 87 bb
       -0.086634055 0.08494939 0.17239866 -0.004149308
000220 0e a0 18 be 48 28 93 bd f1 07 41 bd 25 c1 b8 3d
       -0.14904806 -0.071854174 -0.047126714 0.090212144
000230 c5 a6 96 3d b1 3b 4f bd 4b c3 6c bd cc 42 f7 bd
       0.073560275 -0.050594036 -0.057803433 -0.12073287
000240 87 7d 09 be 90 ef 67 3d c8 7d 30 bd 7e ec 4f bc
       -0.13426791 0.05662495 -0.043088704 -0.0126906615
000250 a3 82 19 bd 05 ac e6 bd af fe 10 3e 96 6b 33 3e
       -0.0374781 -0.11263279 0.14159654 0.1752151
000260 e8 dd 09 3b bf b1 07 ba 43 78 c5 bd f3 36 59 3d
       0.0021036807 -0.00051763275 -0.09642079 0.05303092
000270 74 5a 06 bd ae 0e e8 bd b8 fd 3f bd c8 0b 0d 3e
       -0.032801107 -0.11330925 -0.046872824 0.13774025
000280 57 40 13 be c4 7e 05 3d f6 1f 16 3e 81 95 19 be
       -0.14380012 0.032591596 0.1466063 -0.14998437
000290 8f cf b3 3d f3 db 57 bd b3 9e 1b bd cc e4 28 be
       0.08779823 -0.052699994 -0.037993144 -0.16493529
0002a0 2a ad ba 3d 38 0e cf 3c 01 1b e9 bd 40 5d 26 be
       0.0911506 0.025275335 -0.11382104 -0.1624651
0002b0 70 03 ed 3c bd 59 fc 3d 75 58 17 3e 5f 8a 4e bd
       0.028932303 0.12321804 0.14779837 -0.05042493
0002c0 85 f5 86 bd 13 16 2d 3c 2d 0c a8 bd 02 41 a4 bc
       -0.06589798 0.010564345 -0.08205447 -0.02005053
0002d0 e9 40 93 bc 7b e9 f9 3c 37 d4 9a bc f1 4c 87 bd
       -0.017975288 0.03050684 -0.01890002 -0.06606472
0002e0 2c 5e cb bd fe 11 0c 3e 1a 8a a2 3c f0 ae 96 3d
       -0.09930071 0.13678738 0.019841243 0.073575854
0002f0 76 7c 20 bd c5 29 c6 bd 1a cd 2a 3e bb 9b 5b be
       -0.039181195 -0.09675936 0.16679803 -0.21446125
000300 1f b7 c7 3a 53 35 d0 3d b6 e4 07 be 4b 8b a3 bd
       0.001523707 0.10166421 -0.1327084 -0.079855524
000310 c6 43 36 bd 38 24 0e be 21 26 06 3e 5a ab 22 3e
       -0.044498228 -0.13881004 0.13100483 0.15885678
000320 13 f1 67 3d 99 a8 fe bc 4b 47 23 be 28 dd 14 3d
       0.05662639 -0.031086253 -0.15945165 0.036343724
000330 6c 2e 10 be 86 6e b9 bd 4f 4f dc bd 82 16 31 3c
       -0.14080209 -0.09054284 -0.107573144 0.010808589
000340 2d d2 ab 3c a3 25 69 3d ea b0 2c bd 35 b3 86 bd
       0.020974243 0.05692066 -0.042160906 -0.0657715
000350 47 8a 14 3e 95 55 f2 3d d0 4f 47 3d e6 b9 a2 3c
       0.14505874 0.1183273 0.0486601 0.019864034
000360 17 15 0d 3e c5 fc 71 bd cd 9f 91 bd ae 8c 15 be
       0.13777576 -0.05907895 -0.07110558 -0.14604446
000370 15 d5 45 ba 01 43 4e bd e0 b3 d5 3d 0b c9 be bd
       -0.00075467053 -0.05035687 0.10434699 -0.0931569
000380 11 79 fa bd 18 8f 97 bd 90 8a 81 3c 3b 35 f1 bc
       -0.12230123 -0.0740034 0.015813142 -0.029444328
000390 49 7d 5d 3d f8 1b ae bc d1 0e 41 bd bb 2a 18 bd
       0.05407456 -0.02125357 -0.04713327 -0.037150126
0003a0 ad be 84 3d b7 32 b5 3d 12 66 42 3d b8 57 f9 bb
       0.06481681 0.08847564 0.047460623 -0.007609334
0003b0 c9 b3 c2 bd 0f 12 57 3d 03 76 01 3e 48 5f c4 3d
       -0.095069475 0.052507456 0.12642674 0.09588486
0003c0 54 5a 02 be 7d ce ed 3c ea a7 d1 bd 66 62 a6 bd
       -0.1272977 0.029029125 -0.10237105 -0.08124237
0003d0 9b bc 03 be 04 39 90 3d 30 65 ea ba c2 ed 80 3d
       -0.12864916 0.07042125 -0.001788294 0.06295349
0003e0 0b dc 64 be ed cc 95 3d 0f c7 5e bd e4 b4 07 be
       -0.22349565 0.07314477 -0.054389056 -0.13252598
0003f0 2f 43 a2 3d 06 ea 03 3e 1d 05 08 3e 1b 6b ae bb
       0.079229705 0.12882242 0.132832 -0.0053228266

bias f4 [32]
000000 7f 36 3b bd ec 99 3b bd ed 4f 4c 3e 7f 4a 39 bc
       -0.04570627 -0.04580109 0.19952364 -0.011309265
000010 74 c2 db 3d ea bb 46 3e a9 c2 24 3e 39 65 30 3e
       0.10730448 0.19407621 0.16089882 0.17226113
000020 95 b4 ac bd 08 1d 8b bd a3 d8 b5 bc 6c 52 ed bc
       -0.08432881 -0.06792647 -0.022198027 -0.028969966
000030 c9 fd 2b bc 09 39 f1 3d fd f3 7b 3d 82 66 de 3d
       -0.010497519 0.11778457 0.061511982 0.108593956
000040 d6 c9 06 3e e8 ec 39 3e 10 6b a0 3d 2d 25 32 3e
       0.13162932 0.18156779 0.078329206 0.17396994
000050 89 af f8 3d 7a d1 d6 bd 9c 17 ae 3c 5e c4 a3 3d
       0.12142856 -0.10489173 0.021251492 0.079964384
000060 90 5d 32 3c e1 54 92 3d 6a 75 0b 3e c3 b5 fd bd
       0.010886565 0.071450956 0.13619009 -0.12388184
000070 6f 93 1a bd 6e 4a af 3c f1 e2 08 be e0 13 0f be
       -0.03773826 0.021397796 -0.13367821 -0.13972425

weight f4 [64, 32, 4]
000000 ed 8f 1e 3d 3a 65 b1 3d cb 5b bf 3d 4a 9c 16 3d
       0.038711477 0.086618856 0.0934368 0.036770143
000010 f1 68 fd bc a4 5d 01 3b 55 87 ce bd 67 26 e6 bc
       -0.030933829 0.0019739652 -0.10084406 -0.028094484
000020 e0 3f 9f bb ce 31 d9 3d ef cd b5 3d d1 16 6f 3d
       -0.0048599094 0.106052026 0.08877169 0.05837137
000030 ca 98 3b 3d 29 9e 6e bd 31 b2 bd 3d 10 b1 83 3d
       0.045800008 -0.058256302 0.09262503 0.06430256
000040 3f e2 5f bd 43 55 8d bc d1 1a ba bc 02 24 db bc
       -0.054659124 -0.01725257 -0.022717865 -0.026750568
000050 ca e6 0d bd c4 18 e0 bc d8 36 cd 3c 3f d6 0e bd
       -0.034643926 -0.02735556 0.025050566 -0.03487229
000060 fb 3d 08 3d b0 52 8d bc 45 0f 0d 3c fb 40 39 bd
       0.033262234 -0.017251343 0.008609598 -0.045227986
000070 dc 8e ae 3d dc 09 de 3d de b3 47 3c d4 1f b8 3c
       0.08523342 0.10841724 0.01218888 0.022476114
000080 ca 29 59 bc e8 dc 0c be f9 cc 41 3d ee 9c c4 bc
       -0.013254592 -0.13756144 0.047314618 -0.024000611
000090 1e 34 2f bc 6a 73 6f 3b 22 4b 40 bd 6a 7c e8 bd
       -0.010693578 0.0036537298 -0.046946652 -0.11351855
0000a0 35 99 6c bd 88 64 a2 bc 0b b2 b3 3d 11 32 cf bd
       -0.057763297 -0.019823328 0.087741934 -0.10116971
0000b0 98 d1 e8 3d 17 e1 c3 bd 2e 6f 82 3d bd 19 8f 3d
       0.11368102 -0.09564417 0.06368862 0.06987331
0000c0 de 84 25 bc 47 4d 9c bc c7 83 93 3d f7 a9 5b 3d
       -0.010102479 -0.019079817 0.07202869 0.053628888
0000d0 01 fb 44 bd 2c 5d 3f bb b9 9d 21 3d 47 45 1c 3d
       -0.04809094 -0.0029199822 0.039457057 0.038152006
0000e0 d9 61 46 bd c1 9f 82 3d d4 90 30 bd 4f a9 c2 3c
       -0.04843316 0.06378127 -0.04310687 0.023762373
0000f0 0b 26 aa 3c 19 93 de 3d 6f 23 17 bd 7c 48 38 3d
       0.020770093 0.108679004 -0.036899026 0.044991
000100 c5 89 81 3d 8d 56 e2 bc 99 01 6e bc c6 81 a1 bd
       0.063251056 -0.027629161 -0.014526748 -0.078860804
000110 fa 51 c9 bc bb 1e 82 3d 87 dd 06 3c a6 e0 9a bd
       -0.024575222 0.063535176 0.008231527 -0.075623795
000120 6b ad ad 3d fe 2c 0d bd 2f e1 0c 3d 11 d8 7d 3d
       0.084803425 -0.034466736 0.03439444 0.061973635
000130 15 e3 4a 3c 27 83 06 bc 6c 42 41 3d e3 49 50 3d
       0.012383242 -0.00820998 0.047182485 0.050851714
000140 16 cc 62 3d c1 6b a5 3d cf b9 51 bd 3b 15 55 3c
       0.055370413 0.08077193 -0.05120259 0.01300555
000150 2b a5 8d bd c2 68 a7 bd 0f f5 d6 3d 9b 4c 4b 3d
       -0.06916269 -0.08174278 0.1049596 0.049633604
000160 99 db 91 bd 3f 6c 06 3c 9d c6 13 bd 2b da 9a bd
       -0.07121963 0.008204519 -0.036078084 -0.075611435
000170 a4 87 a6 bd 5e 96 51 3d 25 9d 29 3d e9 1e 87 bd
       -0.0813134 0.051168792 0.04140963 -0.065976925
000180 b2 5e 8d bd aa 06 2e bd 03 5e 9b 3d 05 e9 07 be
       -0.06902827 -0.042486824 0.07586291 -0.13272484
000190 c2 85 96 bd 3d d9 92 3d ab 87 2a bc f5 76 97 bc
       -0.07349731 0.07170341 -0.010408322 -0.01848934
0001a0 37 c6 96 3d b7 f8 97 3d 76 44 b8 3d 3f 69 7c 3d
       0.07362025 0.074204855 0.08997433 0.061623808
0001b0 15 21 e9 bd 07 e9 d7 bd a7 e6 26 be 1b a8 4e bd
       -0.11383263 -0.10542493 -0.16298924 -0.050453287
0001c0 18 6a 08 be 59 58 c6 3a 46 4d 01 3d 82 8c d5 3c
       -0.13321722 0.0015132531 0.031567834 0.026067976
0001d0 8f a1 4a 3d 39 94 87 3d fc d2 d2 bd 2e e2 82 3d
       0.04947048 0.06620068 -0.10294148 0.063907966
0001e0 95 6f 16 bd f4 c4 1c 3d 57 36 1f 3d ef 27 ae bd
       -0.036727507 0.038273767 0.038870182 -0.085037105
0001f0 1b 82 db bd 33 da ba 3d f9 f6 a8 3d fb e7 40 bd
       -0.10718175 0.091236494 0.08250231 -0.047096234
000200 09 5a c5 3d ee a8 c4 bb bc 28 0f bd 09 18 f0 bc
       0.096363135 -0.0060015833 -0.034950957 -0.029308336
000210 b8 0f 9e 3d 93 2e 0a bc c7 76 c4 3c d8 75 e0 3b
       0.07717842 -0.008433956 0.023982419 0.0068499856
000220 d3 76 18 bb 31 ee 55 3d 61 b6 9f 3d 1c f7 76 3d
       -0.0023264184 0.05222911 0.07798458 0.060294256
000230 c6 60 00 3e 3d ae 23 3d 9a ed d2 bc a6 33 5f bc
       0.12536916 0.03996109 -0.025748063 -0.013623154
000240 83 d7 85 bd ef 1e e6 bc b5 fc 16 3c bb 2a 81 3d
       -0.06535246 -0.028090922 0.0092155235 0.06306978
000250 9a 10 b8 3c 13 a8 74 3c 07 7c a2 3d 13 f2 b3 3d
       0.022468854 0.01493265 0.079338126 0.08786406
000260 f8 db cb 3c 21 0e 86 3d 41 87 b3 bc 5e 47 1a 3d
       0.024885163 0.065456636 -0.02191508 0.037665717
000270 a6 eb 84 bd de e9 10 bd 80 cf 9b 3d e7 c6 6d bd
       -0.06490259 -0.035379283 0.07607937 -0.058051016
000280 fa 0e 84 3d 87 ab 8c bd fa ae 9e bd 78 2c c1 3d
       0.06448169 -0.06868654 -0.07748218 0.0943231
000290 e0 97 e0 3d 12 ab a6 3d 57 5a 11 bd 5a 4a 7b bd
       0.10966468 0.08138098 -0.035486545 -0.061350204
0002a0 87 48 a0 3c 37 d1 94 bd 87 7c 8b bd 67 5e 82 3d
       0.019565834 -0.07266467 -0.06810861 0.06365662
0002b0 d9 79 f0 38 0c d0 0d 3c de d4 2a 3d a8 0d ca 3d
       0.00011466788 0.008655559 0.041706912 0.09865886
0002c0 b6 5b d8 3d 42 e9 10 bd cc 86 db 3c f1 57 96 bd
       0.105643675 -0.035378702 0.026797675 -0.07340992
0002d0 a0 80 84 3d d7 b1 64 3d 9e e2 bb 3c 1b 71 9a 3c
       0.06469846 0.055833664 0.022935208 0.018852761
0002e0 b4 fd 9f 3c 66 6e dd 3c c5 3c 83 bd 05 a9 da bc
       0.019530155 0.027030181 -0.06408075 -0.026691923
0002f0 61 c4 a4 bd 41 72 45 3c c4 d4 cd bc 35 2e b2 3d
       -0.08045269 0.012051166 -0.025125869 0.087002195
000300 af 9a ca 3d e2 df 80 bd 5d a1 74 3b d3 90 9f 3c
       0.09892785 -0.06292702 0.0037327625 0.019478237
000310 35 ad ac 3c c9 a6 ea 3c 98 c2 5a 3d 54 61 df 3b
       0.021078685 0.028643982 0.053408235 0.0068170223
000320 ae 3b 66 bd 36 96 24 bc 1d 07 34 bd 73 6c 6a bd
       -0.05620926 -0.010045579 -0.043952096 -0.05723233
000330 a4 c6 80 bd c5 f8 4e bc dd 1e 52 bb 04 57 9d bd
       -0.06287888 -0.0126325535 -0.0032061853 -0.076826125
000340 92 cc 7a bd 91 c4 03 3d fc 4d 5b bd 1f c9 60 bd
       -0.06123025 0.032169882 -0.05354117 -0.054879304
000350 be 2a 01 3e c2 a0 c3 3d 20 43 02 be 81 2a 51 bd
       0.12613961 0.095521465 -0.12720919 -0.051065926
000360 56 5e 8a 3d 67 37 ef 3b a8 62 b0 3d 63 10 c4 3c
       0.067562744 0.0073003056 0.08612567 0.023933595
000370 73 ef f1 3d 68 82 95 bd 8b c4 f2 bd b3 4b 6c bd
       0.118132494 -0.07300264 -0.11853894 -0.05768938
000380 f0 73 cb 3d d1 28 ea 3d 34 88 cf bd 87 09 b3 3d
       0.09934223 0.11433566 -0.101334006 0.087420516
000390 24 75 b4 3d 19 3a bc 3d 52 2e 6b 3c 6c d8 f0 3c
       0.08811405 0.09190769 0.014354305 0.029400073
0003a0 9e 4e 87 bd f5 68 86 3d d9 0c e1 3d e2 a2 8c bc
       -0.06606792 0.06562988 0.109887786 -0.017167512
0003b0 3a f6 a5 bc d7 03 ed bb fa 1b 14 3d ba 4b b9 bd
       -0.020259012 -0.0072331238 0.036159493 -0.09047647
0003c0 7b 65 86 bd 41 7c b7 bd b5 8f fd 3d 4b 7a 98 bc
       -0.065623246 -0.089592464 0.123809256 -0.018613001
0003d0 47 9d d6 bc a6 b4 d7 bb f7 5a 0a 3d f9 97 70 3c
       -0.026198043 -0.0065828143 0.033778157 0.014684671
0003e0 0f bb 8b bc 3c dd 55 bd 56 2e 67 bc 14 3f ca 3d
       -0.01705697 -0.05221294 -0.014110168 0.098753124
0003f0 1f bd bc bd 59 0e d7 bd dd de 86 3d 42 af 02 3e
       -0.092157595 -0.105007835 0.065854765 0.12762168

bias f4 [64]
000000 c1 33 c8 3d 3a 40 bd bc fd 53 55 3b 16 92 0c 3c
       0.09775496 -0.023101915 0.0032551282 0.0085797515
000010 c2 c7 03 3c 3a 50 99 bd e0 ca ea 3d 56 12 80 bd
       0.008043231 -0.07486005 0.114644766 -0.06253497
000020 d0 59 7f b9 3a 85 bc 3d 2c 18 2d 3b 28 88 c7 bc
       -0.00024352153 0.092050985 0.0026412113 -0.024356917
000030 5d 6c 91 bd b7 ac 3a bd e8 71 06 3c 97 00 33 3d
       -0.07100747 -0.04557487 0.008205868 0.043701734
000040 3f 2c 88 3d 5a 5b 15 3c 56 79 36 bc 16 d6 8e 3d
       0.06649064 0.009116018 -0.011137327 0.069744274
000050 81 b4 8d bc 43 bf e4 3d 0e 3b 90 ba 8b a2 72 3d
       -0.017297985 0.11169293 -0.0011003928 0.059237044
000060 cb 1c f3 3d f5 29 d7 bb 65 aa c9 bc 2c c8 43 bd
       0.11870726 -0.006566281 -0.024617383 -0.04779832
000070 78 26 1e 3b 3c 98 dc 3b 28 0d 08 bd 87 79 6b bd
       0.0024131816 0.006732015 -0.03321567 -0.057488944
000080 b1 c0 80 3c a7 26 35 bc 19 df 4f 3d 49 64 3a 3c
       0.015716882 -0.011056579 0.050749872 0.011376449
000090 d3 42 bb bd fc 5a 9d bc 92 f6 97 3d 53 0b 5b 3c
       -0.09143605 -0.019208424 0.074200764 0.013369399
0000a0 c2 ff 49 3d fa a9 5d 3d 27 db 2e 3d ae 1b 05 3d
       0.049316175 0.05411718 0.04268947 0.0324971
0000b0 77 83 aa 3d b3 70 07 bd 99 09 e8 3c 3e 30 f9 bc
       0.08325856 -0.033066463 0.028324889 -0.030418511
0000c0 49 04 f5 3c 8e 72 d3 bc b5 18 1d bc 11 54 ee bc
       0.02990927 -0.02581146 -0.00958841 -0.02909282
0000d0 3d 64 f8 bc b6 6f 80 bd 48 e3 66 3d 61 a3 73 bc
       -0.030321235 -0.06271307 0.056369096 -0.014870496
0000e0 a6 cb 7b bd 8c 4a 16 3d 55 2d 0c 3d b8 29 9a bc
       -0.06147351 0.036692187 0.03422292 -0.018818721
0000f0 96 7f c4 bb 7d 3e d6 3d d1 23 20 bd cd 84 68 bd
       -0.0059966547 0.104611374 -0.039096657 -0.056767274

weight f4 [64, 64, 3]
000000 14 6d 2b 3d 4e b1 f1 3c f5 81 61 bd 31 c2 3a bc
       0.041852072 0.02950349 -0.055055577 -0.011398838
000010 a7 29 ba bc 89 5f 41 3a 1a e9 d4 bc fc 11 4c 3d
       -0.02272494 0.00073766016 -0.025990058 0.04982184
000020 d2 9a 9e 3d b2 08 e9 bc 80 18 fb ba 44 d9 6e 3c
       0.077443734 -0.028446529 -0.0019157082 0.014578167
000030 e8 e7 a0 3c c9 59 5f 3d bb 60 93 bd 9a 50 ec bd
       0.019641832 0.054528985 -0.07196184 -0.11538811
000040 41 2e 2d bd 5b c9 42 bd d3 88 5e 3d 8c 4f 7b bc
       -0.04228044 -0.04755531 0.054329704 -0.01533879
000050 40 4b 75 3d e4 17 9b 3b 6e e0 88 bc e5 6a 6c bd
       0.059886217 0.0047330726 -0.016708579 -0.05771913
000060 11 2d 10 bd fa 73 b8 3c 2d 2d 98 3d e1 bc a6 bc
       -0.03519923 0.02251624 0.074304916 -0.020353736
000070 44 e3 ef 3c af 95 62 3d 9d 2e 44 bd 53 7b b4 ba
       0.029283173 0.05531853 -0.047896016 -0.0013769664
000080 7b 33 41 bd 24 60 2e bd d2 65 07 3d 95 3e cd 3b
       -0.047168236 -0.042572156 0.033056088 0.006263564
000090 1e 7f 47 3d 39 89 12 bd dd a9 c5 bd 03 d3 ef bd
       0.048705213 -0.035775397 -0.096515395 -0.11710169
0000a0 7f a3 91 bd 3f a5 4b bd 0c 58 b2 bd 6c 4b f9 bd
       -0.071112625 -0.049718138 -0.087082 -0.12172589
0000b0 c7 01 1b ba 07 f3 40 bd e3 73 80 bd d7 e0 02 bd
       -0.00059130456 -0.04710677 -0.06272104 -0.031952705
0000c0 2c be 5b bd 45 78 c3 bb f1 7c 9b 3d 45 0a 6a 3d
       -0.05364816 -0.005965265 0.0759219 0.0571387
0000d0 91 5c 04 bd d4 ed 02 bd 47 f4 ab 3c 89 ab 7c bd
       -0.03231484 -0.03196509 0.020990504 -0.061687026
0000e0 9b 3f 61 bd b4 3a 76 bd 23 29 bf bc 0a e0 66 3d
       -0.0549923 -0.060114577 -0.023335045 0.056366004
0000f0 b6 e6 0b bc 0c 16 cd bc 1c 1b 56 3c c4 2b 52 bc
       -0.0085388925 -0.025034927 0.013067987 -0.012827817
000100 2f ad 56 3d 9d 13 c8 3d de 28 cf bd f8 93 32 bd
       0.052411254 0.09769366 -0.10115217 -0.043598145
000110 1d de 32 3d e7 d7 b2 bc 2c 21 1a bd 43 24 4e 3c
       0.043668855 -0.021831466 -0.03762929 0.012581888
000120 b7 ba 57 bd 86 3d 24 bc 76 f1 23 3d bf a6 33 bd
       -0.0526683 -0.010024434 0.040025197 -0.043860193
000130 49 e0 86 bd a6 56 54 bc 63 5a c1 bc 3d 1f 60 bc
       -0.06585748 -0.012960112 -0.02360267 -0.013679323
000140 5f 5e a0 bd f7 41 af 3c 80 b8 5e bd 9a 5c 9b bd
       -0.078305 0.02139376 -0.05437517 -0.07586022
000150 f5 92 8d 3a b0 e2 ba 3d 85 a6 3c bb 1e 1c 74 3d
       0.0010801243 0.091252685 -0.0028785777 0.059597127
000160 d1 e5 99 3d 70 48 d7 3c 57 de 70 3c c3 0b d8 bc
       0.07514537 0.026279658 0.014701447 -0.026372796
000170 6d 41 eb bc df 76 dd bc 46 3d 0b bd 95 55 16 bd
       -0.02871772 -0.027034221 -0.03399398 -0.03670271
000180 29 cd 42 3d 07 11 9a bd 1d c1 70 bc e3 4d 9b bd
       0.047558937 -0.07522779 -0.014694479 -0.07583215
000190 83 1b 57 3d 4b 47 99 3d 65 79 6e bd 92 85 ef 3c
       0.05251647 0.07484301 -0.05822124 0.029238496
0001a0 5e f8 30 bd 04 09 ba 3c 9f 76 b2 3d df 7f 59 3d
       -0.04320561 0.022709377 0.087140314 0.053100463
0001b0 42 60 8d 3d 98 57 6d 3c f8 fd 2a 3c 2e 4f 80 bd
       0.06903125 0.014486216 0.010436527 -0.06265102
0001c0 4d 78 f9 bc 13 7f 82 bd 0d 76 65 3d cd 75 4e bd
       -0.030452872 -0.06371894 0.056020785 -0.050405312
0001d0 db 5e ed 3c b4 cf a8 3d c4 7f 2d 3d 35 5b 0f 3d
       0.028975895 0.08242741 0.042358175 0.03499909
0001e0 cb 66 53 bd 34 b2 5e 3d c6 1e 83 3d ad 80 4f 3d
       -0.051611703 0.054369166 0.06402354 0.050659824
0001f0 e0 ac ac bc c1 0b 63 3c 15 06 07 3d d2 e3 4d bd
       -0.021078527 0.013857783 0.032964785 -0.050266095
000200 28 95 9a 3d 3e 86 f2 3d 57 6e d8 bc a8 9b 44 3d
       0.075479805 0.11842011 -0.026419802 0.048000008
000210 4f 28 99 3d b1 93 10 b9 51 06 16 bc c0 40 3d bd
       0.074783914 -0.0001378793 -0.009156779 -0.04620433
000220 96 9d 2a 3d e9 db 2f bd 71 33 93 3c c1 f8 5c 3c
       0.041654192 -0.042934332 0.017968865 0.013487042
000230 3e 84 2b bc 66 bc a4 bc 45 b8 cc 3c 83 4e cc bc
       -0.010468541 -0.020109367 0.02499021 -0.024939781
000240 58 70 d0 3c ec 18 9e 3d a4 3f 98 3d cb 4d 34 bd
       0.025444195 0.07719597 0.074340135 -0.0440195
000250 67 f6 37 bd 2d 29 a5 bd 50 53 35 3c 27 e0 8f bd
       -0.044912722 -0.08064494 0.0110672265 -0.070251755
000260 7e 92 17 bc 8f 0d a6 3d 6f 11 45 3d 93 47 8e 3d
       -0.009251235 0.08108055 0.04811233 0.069472454
000270 0b 36 73 3d 86 db b5 39 e3 10 10 3d 86 36 06 bd
       0.05937771 0.00034686568 0.035172354 -0.03276684
000280 1a 32 10 3d 14 a7 fa 3c a7 ca 1c 3d 1c 3b a4 3d
       0.03520403 0.030597247 0.0382792 0.08019087
000290 d7 4a 81 3d 0c 87 12 3d 4d de 6c bd 9c 18 99 bc
       0.06313103 0.035773322 -0.05782919 -0.018688492
0002a0 03 16 24 bd 09 22 bd bd e5 0d b5 bd 0d e1 c6 bc
       -0.040060055 -0.09235007 -0.08840541 -0.024277234
0002b0 3c 4a 65 bb 6a 0e 7a bd 08 06 1c bd 47 3f 75 3d
       -0.0034986874 -0.061048903 -0.03809169 0.0598748
0002c0 54 51 17 3d ac 16 53 bd 31 fb b8 bd 67 18 1e bd
       0.036942795 -0.051535293 -0.09032286 -0.03859749
0002d0 45 78 49 bd 54 13 e8 bd 1b c4 43 ba db fe ad 3d
       -0.049186964 -0.113318115 -0.00074678817 0.084958754
0002e0 40 c3 36 3d ea 2b 59 3b 0d 6d 83 bb 10 4e 2f bd
       0.0446198 0.0033137747 -0.0040108026 -0.042799056
0002f0 30 a7 4f 3d 73 82 5e bd e4 08 99 bb 10 d6 62 3d
       0.05069655 -0.054323625 -0.0046702493 0.055379927
000300 f0 dd f4 3c 76 a0 35 bd 29 3c 9a 3d f2 03 37 3c
       0.029890984 -0.04434248 0.07531006 0.011170374
000310 a4 b6 bd 3d 52 48 40 bd 2e bc 56 bc ce bd b9 3c
       0.092633516 -0.04694397 -0.013106389 0.022673514
000320 5e de 1e bc 1d 01 82 3d a0 3d 8e bd 96 30 96 3d
       -0.009696571 0.063478686 -0.06945348 0.07333486
000330 2d e5 b3 37 6d 80 d1 bc 6c 09 67 bd 0b 09 5e bd
       2.1445181e-05 -0.025573933 -0.05640547 -0.054207843
000340 8e be fa bc 87 05 80 bd 1d 3a 78 bc 4f 9f 10 bd
       -0.030608442 -0.06251054 -0.015150574 -0.03530818
000350 da 5a 4e bc b4 6d 35 3b e2 d3 f0 bc 51 43 1e bd
       -0.012594903 0.0027683796 -0.029397909 -0.038638417
000360 f6 1d cf 3a 8b 5d 55 3c 0d d4 8a bc b6 66 c7 3d
       0.0015801776 0.013022791 -0.016946817 0.097363874
000370 32 d2 1b 3d c5 6c 10 bd 76 b3 32 3d af fa 2b 3d
       0.038042255 -0.03525998 0.04362818 0.041987117
000380 af 2c 80 bc 9e 2f 38 bc c3 3f 8b 3d e7 3f 6b 3a
       -0.015646307 -0.011241822 0.06799271 0.0008974061
000390 0e e5 78 bd 0d 95 52 3c e9 32 c9 bd e7 cb 86 3c
       -0.06076532 0.012852919 -0.098241635 0.01645465
0003a0 ec 39 95 bd eb 00 0b 3d f7 f2 4d bd 24 ea a1 bd
       -0.07286438 0.033936422 -0.050280537 -0.07905987
0003b0 f2 5d 4b 3d 64 16 a2 3d 4d ca fe 3c 16 0b 73 3c
       0.04965014 0.07914427 0.031102324 0.014834186
0003c0 0d 31 eb 3b e4 6c a9 3a b4 e2 2c 3d 20 a2 89 3d
       0.007177478 0.0012926129 0.04220839 0.06720376
0003d0 66 aa 72 bd 13 c2 a0 bd 32 74 0a 39 03 57 6f bd
       -0.059244536 -0.07849517 0.00013203992 -0.05843259
0003e0 17 3b 7b bd d5 0d de 3b 00 73 e5 3d 6a 5d b6 3d
       -0.06133565 0.0067765513 0.11203575 0.08904536
0003f0 f1 a8 b3 3d e1 ab 5d bd 46 b8 b4 3c 8a ea 01 bd
       0.087724574 -0.054118995 0.022060525 -0.031717815

bias f4 [64]
000000 a1 b4 bd 3d aa a0 96 3d ca 70 90 bd 0d e7 79 bb
       0.09262968 0.07354863 -0.07052763 -0.0038132102
000010 fd 1f 49 bd da fe 1d 3d 9c e1 1e 3c 42 18 3a 3d
       -0.049102772 0.038573124 0.009697344 0.04543329
000020 d5 43 85 3d b0 b7 b2 3d 1d 12 ad 3d a0 ef c3 3c
       0.065070786 0.08726442 0.084507205 0.023917973
000030 84 e0 7a bd e8 59 a5 3c 54 e8 87 3d a6 01 0d 3d
       -0.06124927 0.020184472 0.0663611 0.0344254
000040 ea f1 8d 3d 95 53 43 3c 31 e1 04 3d e3 e3 83 3d
       0.06930907 0.011921783 0.03244132 0.0643995
000050 cb 80 99 3d 39 a5 3c bd 25 f2 eb bc 80 a6 f5 bb
       0.074952684 -0.046056006 -0.028801987 -0.007496655
000060 93 33 95 3c 56 bb 89 3d cf 1b 67 bd bc 29 4f 3d
       0.018213069 0.067251846 -0.056423005 0.05057691
000070 f4 56 ba 3d 5b 7b b1 3c 2b e6 b9 3d 9d b4 83 3c
       0.09098616 0.021665266 0.09077104 0.016077334
000080 18 11 e3 3c a7 a4 44 bb 70 1f 77 3d b0 45 7d 3d
       0.027718112 -0.0030005367 0.060332716 0.061834037
000090 78 25 29 bd 0a dc f0 bb 67 df 27 bd dd fd 13 bc
       -0.0412955 -0.0073504495 -0.040984537 -0.009032694
0000a0 4f ee 31 bc 1e 5e bc bc c8 15 2e bd 13 54 f8 bc
       -0.01086004 -0.022994097 -0.04250124 -0.030313527
0000b0 45 c8 a0 3d 92 76 5e 3d e2 69 17 3c 8e 9e 6b bd
       0.078506984 0.054312296 0.009241553 -0.057524256
0000c0 52 5a c1 3c 6d 32 01 bd da 4f 40 3c c9 bb 48 3d
       0.023602638 -0.03154223 0.011737788 0.04900721
0000d0 3f 8e 3b 3c af ec e6 3c bd f4 0e bc a1 ae 06 3d
       0.011447488 0.028189031 -0.008725342 0.032881383
0000e0 d3 78 92 3b 22 1b 95 3b 6e 13 16 3d c6 bc 1f 3c
       0.00446997 0.0045503536 0.036639623 0.009749597
0000f0 2e 9a 15 bc 3a 79 84 bd 3b a4 68 3d e9 99 25 bc
       -0.009130998 -0.06468435 0.056797247 -0.010107496

weight f4 [128, 768]
000000 bf 51 b6 bc 8b a4 54 bd c8 36 86 bc 90 22 8d bc
       -0.022255776 -0.051914733 -0.016383544 -0.017228395
000010 68 20 44 bd 52 21 1b bd 20 81 70 bb d9 eb 11 bd
       -0.047882468 -0.037873574 -0.0036698058 -0.035625312
000020 79 80 7c bc 94 3a da 39 11 d6 b3 3c fd 46 8b bc
       -0.01541149 0.00041623844 0.02195266 -0.017001623
000030 ab bd 17 bd dd 21 e0 3c d5 fd 0b 3c eb 15 fe bb
       -0.037046116 0.027359897 0.008544405 -0.0077540777
000040 2a 75 84 bd 19 2f bd bc 6f db e7 bc 15 de 4e bd
       -0.0646766 -0.023093747 -0.028302876 -0.050504763
000050 a1 c9 d3 bc 9c 8d 8b bd 78 8f ab bd 48 5d 38 bc
       -0.02585298 -0.06814119 -0.08376974 -0.011252709
000060 66 5a 55 bc 18 48 ae bc df 2f 01 bd 6f cc 14 3c
       -0.013022041 -0.021274611 -0.031539794 0.009081944
000070 f1 cc f8 38 98 ab b1 bc bc 98 01 bb 11 58 09 bd
       0.00011863735 -0.021688268 -0.0019774875 -0.033531252
000080 4f 0c 0e bd f4 8b 13 3c 82 61 00 3c 0e ea 05 3d
       -0.034679707 0.009005535 0.007835748 0.032693915
000090 10 e7 40 bd b7 fb d0 bc fd 0e 15 3c 0e aa 99 bc
       -0.04709536 -0.025510652 0.009097812 -0.018757846
0000a0 dc df e8 3c bf 9e b0 3c 39 c5 c7 3c 50 53 c8 3b
       0.028427057 0.021560071 0.024386035 0.0061134472
0000b0 9b a7 e1 3b 81 db b2 3c 7b 5c 3c 3c b0 5c f3 bc
       0.006886435 0.021833183 0.011496658 -0.029707283
0000c0 50 45 2c bb 30 61 16 3b a0 40 9b ba 9c f8 04 3d
       -0.002628643 0.0022946112 -0.0011844821 0.032463655
0000d0 c0 51 4d 3c e5 00 8b bc 44 7b 9b 3c 24 b8 17 3c
       0.012531698 -0.0169682 0.018979676 0.009260211
0000e0 d2 4d b8 3c 37 f2 0b bd 00 04 23 38 ac 3c 01 3c
       0.022498045 -0.03416654 3.8865954e-05 0.007888
0000f0 74 c5 c6 3c 3a b8 4b bd 0c 0c a5 bb d4 d0 88 3b
       0.024264075 -0.04973624 -0.0050368365 0.004175285
000100 50 eb 62 3d d8 4f b9 3c 5c 50 6e 3c 7e b3 0c bb
       0.055400193 0.02262108 0.014545526 -0.002146929
000110 60 cf f7 ba b3 6d fa 3c c1 46 7e bc 39 f1 28 3d
       -0.0018906407 0.030569887 -0.015519799 0.041245673
000120 b9 04 44 bc ca 75 49 bd 32 17 68 bd ff b0 f4 3c
       -0.011964017 -0.049184598 -0.056662746 0.029869555
000130 67 4d 8b 3d dd 58 70 3d a1 c7 88 3d fb cf 29 3d
       0.06801873 0.058678497 0.06678701 0.04145811
000140 1e f2 0a 3d ad 79 96 3c 18 49 74 3d 78 ee 78 ba
       0.033922307 0.018368566 0.05964002 -0.0009495984
000150 2a 04 cd bc 97 2d 23 bd 77 c2 28 bd 93 94 d6 bc
       -0.0250264 -0.0398384 -0.04120108 -0.026193893
000160 f1 65 23 3d 63 bf 60 3d c0 a8 53 3d 67 78 37 3d
       0.03989214 0.05487002 0.051674604 0.04479256
000170 0b 2e 19 3c 72 18 71 bc 3e 69 e5 b8 cc f9 d7 3c
       0.009349356 -0.014715301 -0.00010939174 0.02636423
000180 d1 07 6c bd f7 42 33 3d a2 fc 96 bc 1c 9b de 3c
       -0.05762464 0.043765035 -0.018431012 0.027173571
000190 60 6f de 3c 60 dd 43 3d 9e aa 17 ba a0 56 48 3d
       0.027152717 0.04781854 -0.0005785617 0.048910737
0001a0 4d 1a 1c bd ad 81 20 3b 37 5e cf bb 0e dd 97 bc
       -0.03811102 0.0024491355 -0.00632837 -0.018538024
0001b0 f9 a8 4c bd ed f8 a2 bc 29 81 43 ba 3e 46 30 3a
       -0.049965832 -0.019894088 -0.0007457906 0.0006724334
0001c0 00 8c 48 bc 33 e6 44 3d 38 aa 08 bd fa 4d 43 3c
       -0.01224041 0.048071098 -0.03336546 0.0119204465
0001d0 41 36 e5 bc 32 16 10 bd 31 c1 07 3c 6e 3c b0 bc
       -0.027979972 -0.035177417 0.0082858065 -0.02151319
0001e0 9d c7 5d bc 16 54 90 bb dc fd 4e bc ec d1 1c 3c
       -0.013536361 -0.004404555 -0.012633767 0.009571534
0001f0 7e 1b 50 3d fd c3 26 3d 83 d7 50 3d 6d 25 3d 3d
       0.05080747 0.040714253 0.050986778 0.04617827
000200 29 29 6e bb 02 07 e2 3c 32 ae 3f 3b ae 0c 6d bc
       -0.0036340451 0.027591232 0.0029248116 -0.014468355
000210 5a aa e2 bd d6 8d 8d bd 7b a8 85 bd ab 86 22 bd
       -0.11067648 -0.06911819 -0.06526276 -0.03967921
000220 53 88 f5 bc 41 8a 23 3c 8c 55 7b bd 7d bd 8d 3c
       -0.029972231 0.009981693 -0.06136088 0.01730227
000230 be 4a 0e bd 37 fe 01 bd 96 54 d4 bd ef 0a e1 bd
       -0.03473925 -0.03173658 -0.10367696 -0.109884135
000240 48 d8 fa bb 9d 69 15 3d f0 81 50 3b 74 13 d3 3c
       -0.0076551773 0.036477674 0.003181573 0.025766112
000250 d8 a3 4a 3c 60 8c 1e bc 26 03 d6 bc 10 21 f5 3b
       0.012368165 -0.009677023 -0.026124548 0.007480748
000260 a4 43 08 3d 3a d6 0b bc 82 c1 c1 3c 30 11 33 3b
       0.033267632 -0.008534962 0.023651842 0.0027323477
000270 9e a0 19 bd 20 94 2b bc 61 22 32 3d 6b ae 85 bc
       -0.037506692 -0.0104723275 0.043489818 -0.01631852
000280 42 ce 92 3c 4b bf 2d 3d c5 cc 10 3d 89 d5 94 bc
       0.017920617 0.04241876 0.035351533 -0.018168228
000290 c4 e8 6b 3b e2 38 75 bd 49 ea ee 3a 6e fc 0a bd
       0.0035996893 -0.0598687 0.0018227781 -0.033932142
0002a0 91 bc 45 bd 2d 5e 70 bd 5e 5f 38 bd 66 17 24 bd
       -0.048275534 -0.058683563 -0.045012824 -0.040061377
0002b0 94 f0 c9 bd 65 9e 8e bd 7a 7d 3d bb 6a b2 c9 bc
       -0.0986034 -0.06963805 -0.0028913901 -0.024621207
0002c0 ed 5d b5 bc 13 1a 38 3c 74 a2 a8 3c 56 f8 14 bd
       -0.022139514 0.011236685 0.020585276 -0.036369644
0002d0 bd 84 97 3c 7d ba 7c 3b 8b d7 b4 bc 4d 32 c9 bc
       0.018495912 0.0038563304 -0.022075435 -0.024560118
0002e0 1f 2b a6 3c 41 cb 85 3d 8c b9 20 3d 18 af 44 3d
       0.020284234 0.06532908 0.03923945 0.048018545
0002f0 ad 81 53 3d 94 ad 5f 3b 54 bb 70 bb 1e e1 a4 3c
       0.05163734 0.003413056 -0.003673275 0.020126875
000300 86 27 9a bb be 73 11 3c 38 f8 20 bd c3 8d 5c bd
       -0.0047044186 0.008877693 -0.03929922 -0.053846132
000310 fc 42 3b bd cc d3 19 bd 22 7f 0d bd 52 e4 89 bb
       -0.04571818 -0.0375555 -0.03454507 -0.004208126
000320 dd 1e 8d bc 2d 56 a9 bd 28 3e 25 bd d9 fd 94 bd
       -0.01722663 -0.0826839 -0.04034248 -0.0727498
000330 bc 70 55 bd a7 66 21 3d d5 69 e8 bb d2 ae cc 3b
       -0.052109465 0.039404538 -0.0070926943 0.006246426
000340 3c 5a 2c 3d 26 e7 39 3c ac 20 87 bb f9 7f 9f bc
       0.04207824 0.011346614 -0.004123768 -0.019470202
000350 dc 54 06 3d 90 79 cb bb 92 13 38 bd 6c 20 ab 3c
       0.032795772 -0.0062095597 -0.04494054 0.020889483
000360 7c 24 2b bd 5f 86 01 3d 74 91 c8 3c 80 af 3f 3d
       -0.04178284 0.031622287 0.02448342 0.04679823
000370 b3 ee 54 bc 5e 00 38 3d bf 84 28 bc b9 d0 24 3b
       -0.012996363 0.044922225 -0.010285555 0.0025148822
000380 84 51 d6 3c 58 89 23 3d 1c d0 3d bc d2 cd 15 bc
       0.026161917 0.039925903 -0.011585262 -0.00914331
000390 3a 99 06 bb e8 5c 33 bd c3 8c 4b bc eb ac 32 3d
       -0.0020538107 -0.043789774 -0.012423697 0.04362194
0003a0 1e 05 ee 3c 95 85 1a 3d bb 67 96 3d cd 3f 74 3c
       0.029055174 0.03772505 0.07344004 0.014907789
0003b0 1d 87 03 3d 47 ec 7b 3d 9e 74 ca 3c ea 87 57 3d
       0.032111276 0.06150463 0.02471381 0.052619852
0003c0 2b b2 0c bd f0 2d bd 3b 15 96 c3 bc 85 23 44 3c
       -0.0343496 0.0057732984 -0.023875276 0.011971359
0003d0 5a ae da 3c 75 8c 4d 3d dd 61 34 3d 2d 8c 9a 3c
       0.026694465 0.05018278 0.044038642 0.01886567
0003e0 9a 03 08 3c 71 27 19 3d 38 fb a8 bc ba 40 90 3c
       0.00830164 0.03739113 -0.020627603 0.017608989
0003f0 b5 3d 54 bc ce cd a1 3c 75 4d fd 3b 27 b6 af 3c
       -0.012954165 0.019751456 0.007730181 0.021449162

bias f4 [128]
000000 32 7b 49 3c 24 33 26 bd 5d cb 6d 3c 11 c3 1b bd
       0.012297438 -0.040576115 0.014513818 -0.038027827
000010 00 c8 0d bc 10 d1 bf bc 57 da 60 3d 72 25 1c bd
       -0.008653641 -0.023415118 0.054895725 -0.038121648
000020 0a 80 21 bc e2 40 11 bd 7e 44 2c 3a 9f a9 9d bc
       -0.009857187 -0.035462268 0.00065714854 -0.01924592
000030 ff 79 d6 bc a9 28 87 bc 96 56 8f 3c b2 39 c5 3c
       -0.02618122 -0.01649888 0.017497342 0.024075363
000040 c5 2d e2 3c 2f 13 2a 3c 9c e4 27 3c 4e af 69 3c
       0.027609715 0.01038055 0.010247376 0.014262987
000050 64 41 d1 bb d3 37 d8 bb 17 cc 7b bc 46 05 76 3c
       -0.006385969 -0.0065984516 -0.015368483 0.015015906
000060 1d 10 df b9 ae 8c c1 bb 18 6b c8 bc 9a 0d 10 bd
       -0.0004254588 -0.005906663 -0.024465129 -0.03516922
000070 12 e9 9b 3c c4 0f e3 bb dc cd b0 3b f4 c1 b6 3c
       0.019032035 -0.0069293696 0.005395634 0.022309281
000080 f8 65 c0 bc e8 f6 63 3c f6 86 c3 bc af 11 aa 3b
       -0.023486122 0.0139138475 -0.023868065 0.0051900963
000090 c3 e8 5d 3d 55 d5 c0 bc 10 eb a0 3c 5c e6 9a 3c
       0.054177057 -0.023539225 0.019643337 0.018908672
0000a0 3d 79 2a bd 72 59 ef 3c 28 64 8b 3c 10 42 ee 3c
       -0.041619528 0.029217456 0.017015532 0.029084235
0000b0 6a 00 f5 3b 5d 58 00 bd 65 08 ea 3c 6a ea 0f 3c
       0.007476856 -0.03133427 0.028568456 0.008783916
0000c0 46 a2 8d bc be cd 1e bb f0 96 ca bc db 93 3a 3b
       -0.017289292 -0.0024231519 -0.024730176 0.0028469476
0000d0 13 0a 6b 3c bc d1 7e 3d 48 a9 92 bc 65 80 ae 3c
       0.014345664 0.062211737 -0.017902985 0.021301458
0000e0 b2 2d b3 3c 93 b7 ec bc cd c6 df bb 78 1b 09 bd
       0.021872375 -0.028896129 -0.006829119 -0.033473462
0000f0 51 1a f5 3c 39 95 df bc 2f 0b 65 3d c5 3b d3 bc
       0.029919775 -0.027292835 0.05591887 -0.025785336
000100 c0 81 20 bd a8 b1 43 3b c9 bd 79 3c 5e a0 87 3b
       -0.03918624 0.002986053 0.015243002 0.0041389903
000110 46 92 94 3b ec 7d cb bc 54 b5 ad bb 00 6d 92 bc
       0.0045340387 -0.024840318 -0.005301157 -0.01787424
000120 e5 dc 10 3d 7a 70 83 bc 82 7e 82 3c e6 dd 95 bc
       0.03536691 -0.016044844 0.015929464 -0.018294286
000130 45 e0 99 3c ab 81 fa bc 0b 4c 38 3d 69 69 05 3d
       0.018783698 -0.030579409 0.044994395 0.03257123
000140 cb 5f 1c 3b 09 b3 95 3c 02 1d 3c 3c 63 78 9a bc
       0.0023860808 0.018273847 0.011481525 -0.018856233
000150 79 a4 0b 3d 94 fd c4 bb c4 d4 67 bb 1b 16 4d 3d
       0.0340924 -0.006011674 -0.003537462 0.05006991
000160 f6 96 3a 3d ad dd 31 bd f5 e1 ed 3c 39 f4 aa 3c
       0.045554124 -0.043424297 0.029038409 0.020868408
000170 82 22 0c bd 70 21 3b bc a6 cf 5e bb 32 db 3b 3d
       -0.034212597 -0.011421546 -0.003399828 0.045863338
000180 05 ff cf bc f0 19 21 bd 44 6f b0 bc d6 d6 88 3c
       -0.025390157 -0.039331377 -0.02153743 0.016704004
000190 73 54 0a bd 30 50 70 bc 58 bf dd bc d9 d7 cf bc
       -0.033771943 -0.014667556 -0.027068779 -0.025371479
0001a0 97 74 af 3c c3 ef 74 3c 8a 03 c0 bb dd bf 99 3c
       0.021417899 0.014949742 -0.005859797 0.018768245
0001b0 e2 ab 76 3c 0f 6c 20 3d 64 73 10 3d 9a 00 3c bc
       0.0150556285 0.039165553 0.035266295 -0.011474753
0001c0 1c e3 0f ba 7e 09 d7 bb 73 cc 5a 3b e7 63 13 3c
       -0.0005488859 -0.006562411 0.0033386021 0.008995987
0001d0 78 a5 f7 bc 26 05 3f bc 3f 75 1e bd 6b 27 14 bc
       -0.030230269 -0.011658942 -0.038686033 -0.009042601
0001e0 0a cc 94 bc 64 0f 85 3c 93 29 61 3c ed 47 87 3c
       -0.0181637 0.01624269 0.013742822 0.01651379
0001f0 4e 14 01 bd 0f 1d 1a bd b8 93 f3 bc 81 78 f5 3c
       -0.031513505 -0.03762537 -0.029733524 0.029964687

weight f4 [4, 128]
000000 f8 df ba bd 65 1f a1 bd 38 19 8d 3d 36 e0 fd bd
       -0.0912475 -0.07867316 0.06889576 -0.123962805
000010 9b eb a6 3d d0 e2 2b 3e 60 ee c5 3d b3 5b 94 3d
       0.08150407 0.16785741 0.09664607 0.07244053
000020 57 1a a5 bd 23 b3 79 bc 69 ab d3 3c 42 b0 55 3d
       -0.080616646 -0.015240463 0.02583857 0.052170046
000030 37 84 b4 bd a1 95 98 3d c5 6b 0b be f2 e1 fc 3d
       -0.088142805 0.074504144 -0.1361533 0.12347783
000040 54 16 43 bd 8b be 56 ba c3 a9 a4 3b d3 4a 1e be
       -0.047628716 -0.0008191845 0.00502512 -0.1545823
000050 ff 83 e5 bd d6 bc aa 3d 88 af c2 bd 70 4f 05 bc
       -0.11206817 0.08336799 -0.09506136 -0.008136615
000060 1d 9e a8 bd 26 99 56 3d 48 8d 11 be 40 71 49 bd
       -0.08233283 0.052392147 -0.14214051 -0.04918027
000070 a0 3a 65 bd 92 f7 64 3d 23 34 1c 3c c2 02 23 bc
       -0.055964112 0.055900164 0.009533915 -0.009949388
000080 ae ba b8 bb bd 26 b6 3c 22 36 29 bd 3d a3 35 bc
       -0.0056374883 0.022235269 -0.04131139 -0.011086282
000090 4e fb 61 3d db 37 1b bd 9c eb 9d 3d 3c fd a3 bd
       0.055171303 -0.037895065 0.077109545 -0.08007285
0000a0 4a 63 b8 bd c8 85 8a 3d 6b 9c ea 3d ad 3d 9a 3d
       -0.09003313 0.06763798 0.114556156 0.07531295
0000b0 0c 0c 27 3d e0 06 16 be 7b bf c1 3d 7b 4f af 3d
       0.040782973 -0.1465106 0.0946035 0.085600816
0000c0 2d 49 4f 3c 1d 0e 5a 3b 16 86 18 bd 05 cb d6 bd
       0.012651724 0.0033272572 -0.03723725 -0.10487942
0000d0 62 95 1e bd 6d fe 36 3d 9d 80 11 3d 06 d6 60 bd
       -0.03871668 0.044676233 0.035523046 -0.05489161
0000e0 be c4 e5 3c 70 84 27 3d 08 6d 00 bd 82 ea 9e bd
       0.028047916 0.040897787 -0.03135398 -0.077595726
0000f0 e8 a3 1f bc 32 f5 8e 3d 62 7a eb 3d c2 18 3c 3d
       -0.009743668 0.06980361 0.11497952 0.04592205
000100 17 45 c9 bc eb 4d 33 bc dc c8 94 bd 7c af dc bd
       -0.024569077 -0.01094387 -0.072648734 -0.107756585
000110 e3 6d 4d 3d 0e 07 a0 3d 16 a1 d7 bc cb b8 cd 3d
       0.050153624 0.078138456 -0.026321929 0.10045012
000120 b8 5e 9b bd e4 68 23 bd 51 ec cd 3d ea dd 00 be
       -0.075864255 -0.039894953 0.100548394 -0.12584653
000130 0b cc 94 3d 78 6e a6 3d ce 94 48 3d 86 3d 30 3d
       0.072654806 0.08126539 0.048970036 0.043027423
000140 1d 43 af 3d a1 2e f0 bc 88 be 17 3e a6 0d 31 3d
       0.08557723 -0.02931911 0.14818776 0.043225907
000150 e3 be 67 3d b0 e9 31 3e a4 23 28 bd 12 f7 ba 3d
       0.056578528 0.17374301 -0.041049615 0.09129156
000160 61 36 91 3d 90 56 18 3d a4 e3 5b bd b6 26 bc bd
       0.0709045 0.037191927 -0.053683892 -0.09187071
000170 35 b1 31 bd b3 26 c9 bd 95 75 ed bc de 56 bc 3d
       -0.04338189 -0.098218344 -0.028986732 0.09196256
000180 1a e9 63 3d bc cd 0b 3d 5e 2d 61 3d 16 18 c1 bd
       0.055642225 0.03413175 0.054974906 -0.09428422
000190 80 0b d7 bc ab 02 27 be 1c 81 87 bc e8 df e8 bc
       -0.0262506 -0.16309611 -0.016541056 -0.02842708
0001a0 de 26 bc bd 64 97 1d 3c 55 48 b5 bd f4 49 36 bd
       -0.09187101 0.009618614 -0.08851687 -0.04450412
0001b0 6c 27 b4 3d e2 3c 05 3e 8f a9 63 bd 15 d0 3b bc
       0.087965816 0.13011506 -0.055581626 -0.011463185
0001c0 25 4f 5a 3d f7 b0 f5 3d 06 33 fa bd 69 77 22 bc
       0.053298134 0.11996644 -0.12216763 -0.009916165
0001d0 b7 23 c9 3d d6 d4 47 bd 9f cb 62 3d 3f f0 75 3d
       0.09821265 -0.04878696 0.05536997 0.06004357
0001e0 fe 5e a1 bb 5f c9 10 bd 62 a9 b8 3b ef 1b 0f 3d
       -0.004924654 -0.035348292 0.0056354264 0.03493875
0001f0 55 be af 3d f4 e1 f1 bd d6 96 4f 3d 3c 8c 8b 3d
       0.08581225 -0.11810675 0.050680958 0.06813857
000200 6b 37 84 bd 18 df 1b be f1 56 bd 3d 96 3f 0b be
       -0.06455883 -0.15221822 0.092450984 -0.13598475
000210 43 c7 11 3e 4d 75 61 bd 95 36 59 3d 4e 71 72 bd
       0.14236169 -0.055043507 0.05303057 -0.059190087
000220 b0 c6 e3 bb cb 90 86 bd f2 1d b7 bc c3 15 55 bd
       -0.0069511756 -0.06570586 -0.022353146 -0.052022707
000230 4b ec f1 bd ae cf 0f 3d 26 f9 eb bc 6b e1 db 3d
       -0.118126474 0.03511017 -0.028805327 0.107363544
000240 c5 2d b9 bc 50 ed cb bd 83 76 f9 bc 5a f4 0c be
       -0.022604832 -0.09957373 -0.030452019 -0.13765088
000250 cf fe b4 bd d0 27 4b bc 7b d5 08 be a2 4a a5 bd
       -0.088376634 -0.012399629 -0.13362686 -0.08070876
000260 1e 5f 0f be 3e 89 02 3e 13 de 03 be 04 59 13 bd
       -0.14001128 0.12747666 -0.12877683 -0.035973564
000270 26 49 52 bd 73 58 3c 3d 16 2d 8a bd 37 44 42 3b
       -0.05133929 0.04598279 -0.06746881 0.002964271
000280 22 1a af bd 99 44 80 bd a1 d6 25 be ef 71 bc ba
       -0.08549906 -0.06263084 -0.16195156 -0.0014377217
000290 af 5f 4e 3d 4a 13 b2 bd 13 61 a1 3d 36 38 c3 bd
       0.05038422 -0.08695085 0.078798436 -0.09532206
0002a0 fa ac 40 3c cb d0 6f 3d 75 48 94 bd 76 f0 98 3d
       0.011759991 0.05854873 -0.072403826 0.07467739
0002b0 e9 8c 80 ba 1f 3c 15 be e7 cc ba 3d 2b e1 bb bc
       -0.000980762 -0.14573716 0.09121113 -0.022934517
0002c0 41 e6 2e bd 3f 35 89 3c b0 f9 45 bc c9 09 a8 bd
       -0.042700056 0.016749023 -0.012083456 -0.08204991
0002d0 ba 36 7b bd 21 63 10 3d 33 0f b9 bb 46 7f c4 3c
       -0.06133149 0.035250787 -0.005647564 0.02398647
0002e0 da 5b 11 3e 0c 3f 89 3d d7 92 11 bd 2e 6c 85 bd
       0.14195195 0.06701478 -0.035540428 -0.06514774
0002f0 46 44 2f 3d cc af da 3d 53 64 3c 3d d8 f2 05 3c
       0.04278972 0.10678062 0.045994114 0.008175574
000300 cd f7 09 bd cc 31 f6 3c b3 04 ac ba 4e 6c 53 3d
       -0.033683587 0.030053042 -0.0013123959 0.05161696
000310 84 93 03 3e 1e 6e 8c bd f2 e1 37 bd e5 dc 08 3e
       0.12849241 -0.06856941 -0.044893213 0.13365515
000320 27 67 2b bc 77 de d5 3d 9a fa 83 3d b8 56 f8 bd
       -0.010461605 0.104428224 0.06444283 -0.12125915
000330 48 a7 d9 bc 79 d2 61 bc 9d f0 a1 3d 90 26 dc 3d
       -0.026569024 -0.013783091 0.079072215 0.10749543
000340 89 e0 b6 3d 02 24 d4 3d 30 7c a6 3d 26 80 94 3d
       0.089295454 0.103584304 0.08129156 0.07251005
000350 44 ad 78 3d 25 f0 9e 3d 55 5d b1 3d 78 1a 44 3d
       0.060712114 0.07760648 0.0866038 0.047876805
000360 4c 26 a4 3d 61 95 39 bd 41 11 95 bd 5f b5 11 bd
       0.08015117 -0.045308474 -0.072786815 -0.03557336
000370 82 1e 3b 3d 5a 42 a2 bd 00 da 2a 3d 48 d8 8f 3d
       0.04568339 -0.07922812 0.041711807 0.07023674
000380 e2 55 43 bd b5 7c 0f bd 83 96 54 bd 6c 83 35 bd
       -0.047689326 -0.03503104 -0.05190135 -0.044314787
000390 0b cf 93 3d 13 88 b5 bd 8c 7d a6 bd 6c 1d 67 3d
       0.07217225 -0.08863845 -0.08129415 0.056424543
0003a0 2f 6b 95 bd e5 2d 87 3d 55 0c a2 bd 9c aa 17 3d
       -0.07295834 0.066005506 -0.079125084 0.03702794
0003b0 8b 26 7f 3d a4 d1 c5 3d 27 cc cb 3c 10 86 16 be
       0.062292617 0.096591264 0.02487762 -0.14699578
0003c0 66 f3 36 bd b8 d7 16 bc 34 fa 30 bd 14 1e 95 bd
       -0.044665717 -0.009206705 -0.043207362 -0.072811276
0003d0 4f 17 e8 3d 52 55 a8 3d 2b a0 98 3d 18 bd 82 bd
       0.11332571 0.082193986 0.074524246 -0.06383723
0003e0 7d 89 8b 3b 43 87 85 bc dd 0c 9c bd d3 16 21 3c
       0.0042583332 -0.01629985 -0.07619641 0.009832102
0003f0 40 a6 a1 bd a5 48 29 3d 1b ae 8a 3d 62 85 52 bd
       -0.07893038 0.041329045 0.06771489 -0.051396735

bias f4 [4]
000000 c9 40 b6 bd e1 a8 92 bd 48 4e ee 3c 1a 0c 8c bd
       -0.088990755 -0.07161117 0.029090062 -0.06838246
