pretrained_model/current_model_25000.pth (torch_old, 496664 bytes, 10 tensors)

weight f4 [32, 4, 8]
000000 df 23 04 3e a8 eb 30 be dc 04 53 bd d8 eb b6 bc
       0.12904309 -0.17277396 -0.051518306 -0.022329256
000010 c8 6a 52 bd b4 4e 29 bd ac b5 7f bd 21 d7 29 be
       -0.051371366 -0.041334823 -0.062429115 -0.16585971
000020 70 18 e1 bc b1 d4 2c 3e b0 e7 21 bd 94 3c 66 bd
       -0.027477473 0.1687801 -0.039527595 -0.056210116
000030 b7 ec dd bd df ce 11 3e 60 39 dd 3c 9a 87 75 bd
       -0.108361654 0.14239071 0.027004898 -0.059943773
000040 20 2b 54 bd a5 dd 2d 3e 38 c1 9a 3c 38 d0 23 3d
       -0.05179894 0.16979082 0.018890962 0.039993495
000050 75 78 28 3e 57 e3 30 3e 80 b5 7e bc e8 09 3c 3d
       0.164522 0.17274223 -0.015546203 0.045907885
000060 58 11 89 bd 9e 3c e6 3d f4 c6 12 bd e0 e6 87 bb
       -0.06692761 0.112420306 -0.035834268 -0.0041473955
000070 30 3a 66 bd 7e ed e3 3d f4 a7 b2 bd 99 90 06 3e
       -0.056207836 0.111292824 -0.08723441 0.13141097
000080 68 90 e1 3c a9 2b 1e 3e dd 57 0c 3e a3 02 00 3e
       0.027534679 0.15446343 0.13705392 0.12501006
000090 ce 65 eb 3d d5 33 23 3e 32 46 b5 3d 18 ec 4d 3d
       0.11494027 0.15937741 0.08851279 0.050273985
0000a0 08 da 9e bc 00 52 4b bd 71 95 24 be a8 93 94 3d
       -0.019391075 -0.04963875 -0.16072632 0.07254726
0000b0 65 8b 09 3e 7e 7b c7 3d e0 44 a2 3c 41 de a8 bd
       0.13432081 0.09740351 0.019808233 -0.082455166
0000c0 58 b3 9e bc 73 88 28 be bb cc 0f 3e b8 a7 c2 bc
       -0.019372627 -0.16458301 0.14042942 -0.023761615
0000d0 88 ae d8 bc 87 60 25 be b8 8f cc 3c 09 17 ee bd
       -0.02645041 -0.16150104 0.024970874 -0.11625487
0000e0 f0 a6 28 bc 50 15 59 3d dd 99 91 bd 08 b4 16 bd
       -0.010293707 0.05299884 -0.07109425 -0.036792785
0000f0 8d 62 20 be 8a 62 97 3d 52 e1 bb 3d 9c 40 85 3d
       -0.15662594 0.07391842 0.09173836 0.06506464
000100 2a da 1a be 74 fc f1 bd 2c 3a 7a 3d a8 78 f4 3c
       -0.15122285 -0.1181573 0.061090633 0.02984269
000110 28 7b eb 3c a0 20 c4 bd 6a 65 ee 3d dc 89 cd bd
       0.028745249 -0.09576535 0.11640437 -0.1003606
000120 7b dc 13 be 6c 3f d6 bd 00 5b 40 bd 52 2c cf bd
       -0.14439575 -0.104613155 -0.046961784 -0.10115875
000130 00 50 3b 38 50 ba b1 bc 80 1a d4 bb 51 77 04 3e
       4.465878e-05 -0.021695286 -0.0064728856 0.1293614
000140 3e ca a8 3d 8e b2 fd 3d 91 06 1d be 8c 08 1d bd
       0.082417 0.12387572 -0.15334536 -0.03833823
000150 a8 23 d2 bc 98 f9 db 3c 8c 7b 06 be 00 20 e8 3c
       -0.025651768 0.026852414 -0.13133067 0.028335571
000160 8c a6 4d bd 30 92 b0 bd 18 f7 9d bd 98 4c df bc
       -0.05020766 -0.08621633 -0.07713145 -0.027258202
000170 8e af ff 3d 48 b0 29 3d 57 83 33 be 80 6a cd 3c
       0.12484656 0.04142788 -0.17530571 0.025075197
000180 c8 aa da bc 7a 0e f3 3d 88 60 9c bd f0 92 47 bc
       -0.026692763 0.118679956 -0.076355994 -0.012181029
000190 e0 dc 59 3d 29 e9 99 bd e0 0e 49 bd ec 82 4b bd
       0.05318916 -0.07515175 -0.04908645 -0.049685404
0001a0 17 7b 16 be 98 ac 32 bd d5 e2 0d be d4 3b 88 3d
       -0.14695393 -0.04362163 -0.13856061 0.06652036
0001b0 a0 46 fe 3b 7c bb 86 bd 86 94 0b be 99 66 15 3e
       0.007759884 -0.065787286 -0.13630876 0.14589919
0001c0 48 12 26 bd f9 23 e8 bd 20 13 38 bc 00 bb 88 3b
       -0.040544778 -0.11334986 -0.0112350285 0.0041726828
0001d0 f0 03 d4 3c 80 b7 28 3c fe 66 2b be d8 da 85 3c
       0.025880784 0.010297656 -0.16738507 0.016339704
0001e0 b0 7e 8a bc f8 3b 0f bd 00 25 b5 3a c5 bb 08 be
       -0.016906112 -0.0349693 0.0013820231 -0.13352878
0001f0 c8 0d df bc d8 01 e4 3c c9 a1 0d 3e 62 79 bf bd
       -0.027228251 0.02783291 0.13831247 -0.09349324
000200 70 97 68 bc f3 29 2b 3e f3 bc af bd d5 27 16 be
       -0.014196262 0.16715221 -0.08580961 -0.14663632
000210 76 29 e0 3d b0 a5 62 bd 4e 3b 92 bd a4 4c 2c bd
       0.10945408 -0.055333793 -0.07140218 -0.042065278
000220 58 f2 09 be b8 4c 57 3d ca e0 18 be a7 41 84 bd
       -0.13471353 0.0525634 -0.149295 -0.06457835
000230 44 34 1f be 79 d3 15 3e 11 ff 1c be ed 1e 05 3e
       -0.15547282 0.14631452 -0.15331675 0.13000078
000240 be 40 2b be aa 36 9c 3d 20 07 94 bb e4 dc 81 3d
       -0.16723916 0.07627614 -0.004517451 0.0634096
000250 80 6e ea 3a a0 d3 03 3d 72 e1 cb 3d 39 f1 04 3e
       0.0017885715 0.032184243 0.0995511 0.12982644
000260 20 ea 3f 3d 00 58 7b ba 9f 6a 22 3e 81 37 10 3e
       0.04685414 -0.0009588003 0.15860985 0.14083673
000270 3f 8d 0c 3e f6 b2 75 bd 69 aa 31 3e 0a cc de bd
       0.13725756 -0.059985124 0.17350163 -0.10878761
000280 38 0a 85 bd 49 87 05 3e 5c 67 8f bd 18 c2 bf bd
       -0.0649609 0.13039888 -0.07002136 -0.09363192
000290 06 0c d5 3d e6 c3 15 be b8 1c 22 be 4c 89 32 bd
       0.10402684 -0.1462551 -0.15831268 -0.043587968
0002a0 d8 ec ba bc f0 f6 06 3c 28 fc 98 3c 52 d0 f7 3d
       -0.022818014 0.008237585 0.018674925 0.12100281
0002b0 a4 3f 56 3d c8 e4 83 3d a0 14 47 3d 56 1d ae bd
       0.052306786 0.06440121 0.048603654 -0.08501689
0002c0 e0 64 d6 bc a0 75 f1 bb fe ec 6b bd bc 56 23 3d
       -0.026171148 -0.0073687583 -0.05759906 0.03987764
0002d0 10 83 87 bc 0c e3 4a bd 9a b4 d0 3d de e6 a9 bd
       -0.016541988 -0.049532935 0.10190697 -0.082959875
0002e0 00 10 dd bc 04 75 6f 3d 22 68 ac 3d 98 42 34 be
       -0.026985168 0.058461204 0.08418299 -0.17603528
0002f0 f0 4b 93 bd e8 64 76 3d 19 f1 25 3e c6 30 94 bd
       -0.07192218 0.060154825 0.16205253 -0.07235865
000300 17 7f 15 3e 9c 5a 03 3d 99 ff 33 3e 60 39 eb 3c
       0.14599262 0.032068834 0.17577972 0.028713882
000310 fa c1 07 be 74 3b 72 bd 4e 1e c8 bd 12 0d 05 be
       -0.1325759 -0.05913873 -0.09771405 -0.12993267
000320 a4 0f 19 3d 00 48 84 b8 5e 0f c5 3d 8e ae cf 3d
       0.03736843 -6.3076615e-05 0.09622072 0.101407155
000330 68 31 94 3d a3 34 29 be 16 ba e0 3d 30 52 9c 3c
       0.07235986 -0.16523986 0.10972993 0.019082159
000340 62 7b 17 be a0 e0 9c 3b fa 9d 63 bd 34 b2 19 bd
       -0.1479316 0.0047875196 -0.05557058 -0.037523463
000350 d1 c0 1c be 1c 92 09 3d 38 0b ee 3c 15 f2 0b 3e
       -0.15307929 0.033586606 0.029058084 0.13666566
000360 72 6d ed 3d 08 9b d2 3c 74 ed 02 bd 92 9c cf 3d
       0.11593141 0.02570869 -0.031964734 0.10137285
000370 75 0d 2a 3e c0 87 83 bb de 98 bb 3d 5e 9f 6b bd
       0.16606696 -0.0040139854 0.091600165 -0.05752503
000380 fd ad 28 be 32 80 8b bd c8 a2 53 bd 9b 45 11 be
       -0.16472621 -0.06811561 -0.051668912 -0.14186709
000390 d0 aa 3a 3c 09 55 11 be e2 f4 b4 3d 19 83 15 3e
       0.011393264 -0.14192595 0.0883577 0.14600791
0003a0 c4 ed 39 bd 31 5f 04 be 53 89 27 be 8a 2d f6 3d
       -0.045392767 -0.12926938 -0.16360979 0.12020405
0003b0 c6 8b 1e be db 44 0a 3e be 12 0c be b4 d9 06 3d
       -0.15483007 0.13502829 -0.13679025 0.03292246
0003c0 44 d9 2b 3d 4a 04 ff 3d 36 fa aa 3d b0 4e 06 bd
       0.041955248 0.1245199 0.08348505 -0.032789886
0003d0 16 00 d5 3d e0 af 7c 3c 02 7e f1 3d a0 5c 42 3d
       0.10400407 0.015422791 0.11791612 0.047451615
0003e0 83 d0 0e 3e cd 8d 11 3e d0 40 92 3c 42 2b f9 3d
       0.13946728 0.14214249 0.01785317 0.12166454
0003f0 4b 0a a9 bd 31 dc 2e 3e e8 37 7b 3d 8a ec b7 bd
       -0.08253916 0.17076184 0.061332613 -0.08980663

bias f4 [32]
000000 a0 d4 99 bc fb f9 99 3d ec 6d 38 3e e9 7a d4 3d
       -0.018778145 0.07518383 0.18010682 0.10375006
000010 f8 28 f1 bc bb 35 ca bd 90 f7 09 be 99 8a ed 3d
       -0.02943848 -0.098735295 -0.13473344 0.11598701
000020 d9 40 36 3d 92 2c b1 3c 96 66 5d bd 55 02 02 be
       0.044495437 0.021627698 -0.05405291 -0.12696202
000030 36 6a 95 bd 98 f7 9c 3d b8 5a 94 3d b0 e2 10 bc
       -0.07295649 0.07664412 0.07243866 -0.008843109
000040 6a ea 2c 3e 4a d1 c2 bd c3 9b 08 be d7 47 02 3e
       0.16886297 -0.09512575 -0.13340668 0.12722717
000050 0d cb 80 bd a4 8e d8 bd b1 a3 71 3d 0c cb 07 be
       -0.06288729 -0.105740815 0.058994 -0.1326105
000060 f6 47 82 bd 80 c5 45 bb 60 cd 87 3c dc 79 18 3e
       -0.06361382 -0.0030177534 0.016577423 0.14890236
000070 a4 c4 46 bd e0 77 86 bb 50 84 cf bc 94 81 8b 3d
       -0.048527375 -0.0041036457 -0.025331646 0.068118244

weight f4 [64, 32, 4]
000000 d1 56 8c 3d ac 00 fb bc 12 e7 83 bd 81 56 b1 bd
       0.068524964 -0.030639969 -0.064405575 -0.086590774
000010 a6 8d 16 3c 48 a3 b0 3d c2 8e 50 bc b0 1a 9f 3d
       0.009189045 0.086248934 -0.012729349 0.07768762
000020 56 c7 b5 bd b6 bc 70 bd 29 bc 05 3d 5b b2 1e 3d
       -0.08875911 -0.05877372 0.032650147 0.03874431
000030 cd 67 a9 bd 56 ca c6 bb 65 15 63 3c 58 f1 4e bd
       -0.082717516 -0.006066601 0.013860081 -0.050523132
000040 f3 b6 80 3d bc 03 bd 3c c0 50 69 bb a0 5c 03 3c
       0.06284895 0.02307307 -0.003560111 0.008017689
000050 20 67 9c 3c a5 c4 91 3d dd 04 99 bd f9 86 8c 3d
       0.019092143 0.07117585 -0.07471631 0.068616815
000060 e8 22 38 bd 7c 9f 82 bc 68 54 0b 3c ed 44 b2 3d
       -0.044955164 -0.015945189 0.008504011 0.08704553
000070 fe f6 95 bd 97 b3 93 3b b7 98 76 bd 1d 3b a3 bc
       -0.07322501 0.0045074928 -0.060204234 -0.019925648
000080 61 90 70 3d 9c bc a4 bd 54 70 64 bc 43 e0 0a 3d
       0.05873144 -0.08043787 -0.013942797 0.03390528
000090 7e 79 9d 3d ca 92 3f bd 99 55 d1 3c af 46 5e bc
       0.076891884 -0.04677085 0.025553511 -0.013566657
0000a0 45 26 46 bd c8 17 19 3c e8 31 80 3c 46 01 59 3d
       -0.04837634 0.009344049 0.015648797 0.05297973
0000b0 96 69 69 3d 5e 75 9f bd 13 9a 32 bd 3c cc 8c bc
       0.05698546 -0.07786058 -0.043603968 -0.01718723
0000c0 2d e7 81 3d 68 b1 f7 3c 08 cc 64 bc 17 53 a7 3d
       0.063429214 0.030235961 -0.0139646605 0.08170145
0000d0 a8 9f 54 bd 66 cc 87 3d df a1 7f bd 3c 01 aa 3c
       -0.051910073 0.06630783 -0.06241023 0.020752542
0000e0 e1 bf 61 bd 98 9f 84 bd c3 f6 9c 3d d1 e3 3c bd
       -0.05511463 -0.064757526 0.076642536 -0.0461157
0000f0 f5 2c 8a 3d 42 b9 0a 3d 90 fc a6 bc c3 7d 8e 3d
       0.06746856 0.033868082 -0.020384103 0.06957581
000100 a6 13 54 3d 7b 1f 86 bd ad c4 42 bd f1 de 93 bd
       0.05177655 -0.06548973 -0.047550846 -0.07220257
000110 ce 68 35 bd fa a9 8f bd b2 6d a3 bd a2 f3 4d 3d
       -0.044289403 -0.07014842 -0.07979907 0.050281174
000120 1b af 3e bd c4 22 01 bd de 6e 55 3d 06 81 1c 3d
       -0.046553712 -0.031527296 0.052107684 0.038208984
000130 43 d0 49 3d ff 69 1a 3d 8a 42 dd bc 27 b7 29 3d
       0.04927088 0.037698742 -0.027009267 0.041434433
000140 1b 46 7c bd 1a 6a 40 3d 62 1a 38 3d c6 d2 35 3d
       -0.061590295 0.046976186 0.044947036 0.044390462
000150 32 63 da bc 40 46 98 bd 28 98 27 bd 73 03 84 3d
       -0.026658628 -0.07435274 -0.040916592 0.064459704
000160 5f 99 19 bd e5 93 87 bb ce c3 3a 3d 1e c6 01 3d
       -0.03749978 -0.0041375034 0.04559689 0.03168308
000170 38 94 08 bd 78 dc 9b 3c c0 bd 89 bb 34 12 91 bd
       -0.033344477 0.019026026 -0.004203528 -0.0708355
000180 40 d5 e1 bb 3e 6e 17 3d 01 92 05 bd 1e 77 92 bd
       -0.0068918765 0.03697037 -0.032609943 -0.07151626
000190 db bc 91 3d b0 53 f4 bb d0 c6 2a bc 82 9f 24 bd
       0.071160994 -0.0074562654 -0.010423377 -0.04019118
0001a0 c5 38 06 3d e7 78 8d bd b6 ac 93 3d 8e f3 7d 3d
       0.032768983 -0.06907826 0.07210676 0.06199985
0001b0 d1 84 65 3d 91 fd 54 3d be 40 02 bc 7c f3 7e 3d
       0.056034867 0.051999632 -0.007950006 0.062243924
0001c0 4f 2c 82 3d 26 23 e5 bc bb 04 93 bd 2c 3a c8 bc
       0.063561074 -0.027970862 -0.07178637 -0.024441801
0001d0 ac 38 30 bd 96 42 65 3d b7 ff 8e 3d e0 0a d6 bc
       -0.043022797 0.055971704 0.069823675 -0.026128232
0001e0 75 47 1f bd 86 d2 9c bd ea 4a 79 3d 77 07 60 bd
       -0.038886506 -0.07657342 0.06086246 -0.05469462
0001f0 a0 51 2f 3c 10 ad 4f 3c 88 84 81 bd d8 42 41 bd
       0.010700613 0.012675539 -0.063241065 -0.047182888
000200 7b 26 a4 3d ed d3 80 3d 3c f5 9f bd a3 c3 ac 3d
       0.08015152 0.06290422 -0.078104466 0.08435752
000210 38 88 31 3c f8 a4 e0 bc 40 c7 65 3c 88 96 ea bc
       0.0108357 -0.027422413 0.014024556 -0.028636232
000220 12 59 5a 3d 10 a8 c3 bc a1 f0 6d bd 79 97 09 bd
       0.0533076 -0.02388385 -0.05809081 -0.03359172
000230 c4 69 c1 bc 60 7c 5e 3b 81 81 98 bd 16 3d 05 bd
       -0.023610003 0.0033948645 -0.07446576 -0.03252896
000240 15 8a 01 bd 41 bd 88 bd 44 27 8a bc 11 ad a3 3d
       -0.031625826 -0.06676722 -0.016864426 0.07991994
000250 0e d9 7d 3d 10 3c 6c 3c 00 e0 ef ba ae 44 31 3d
       0.061974578 0.014418617 -0.001830101 0.04327839
000260 6a b7 92 bd e2 43 d6 bc 0a 0d 2f 3d 11 78 9a 3d
       -0.0716389 -0.026155416 0.042737044 0.07542432
000270 3c d8 d0 3c 65 45 85 3d fa a9 53 3d dd 69 84 bd
       0.025493734 0.065073766 0.051675774 -0.06465504
000280 a9 a3 2d bd 19 24 a9 3d 04 cc 04 3d d4 28 90 3c
       -0.042392407 0.08258838 0.032421127 0.017597593
000290 72 59 79 3d 33 64 5d bd 6e 44 1c 3d 9d d7 95 bd
       0.060876317 -0.054050636 0.038151197 -0.073165156
0002a0 f6 45 79 3d 40 40 a9 3a 66 cc 06 3d e3 56 8b 3d
       0.060857736 0.0012912825 0.032909773 0.06803682
0002b0 9a 14 68 3d ec 41 0c bd 7e 7d f8 bc 2d 86 9d 3d
       0.056660272 -0.034242555 -0.030333277 0.076916076
0002c0 c8 7a 88 3c 82 34 24 3d c4 31 eb 3c 71 5a ab bd
       0.01666011 0.040089138 0.028710254 -0.0836686
0002d0 32 e3 90 bd fe 6f 1b 3d 08 38 6e bc 87 59 93 3d
       -0.07074584 0.0379486 -0.014539726 0.0719481
0002e0 76 c3 f6 bc 07 8d af 3d 56 e1 4b 3d 72 f7 0a 3d
       -0.0301225 0.08571821 0.049775444 0.03392739
0002f0 9c 19 12 3d f0 cd d0 bb bb 30 0e bd 68 1b 8d 3c
       0.035668954 -0.006372206 -0.03471444 0.017224982
000300 40 6a e3 3c 80 03 16 bd e0 8f 14 3b e4 3f 3a bd
       0.027760625 -0.03662443 0.0022668764 -0.045471087
000310 34 67 ac bc f0 06 9b 3c 38 b1 1a 3c 7d 20 8e bd
       -0.021045305 0.018924206 0.009441666 -0.069397904
000320 33 2e 08 bd 7a 7f 00 3d 00 12 d3 3c 3c 99 8d bc
       -0.033247184 0.03137157 0.025765419 -0.017284982
000330 b6 40 a7 bd 9f 84 9e 3d be e4 fe bc 1d 05 6c bd
       -0.081666395 0.07740139 -0.031114932 -0.057622064
000340 f2 4e 71 bd 90 d6 5a 3c 98 c4 86 bd 3c cb 0b 3d
       -0.05891318 0.01335682 -0.06580466 0.034129366
000350 35 a1 53 bd 10 46 e1 bb e0 62 26 bc 56 6f 37 bd
       -0.05166741 -0.006874807 -0.01015541 -0.044783913
000360 2e d6 1e 3d be 5d 67 3d 96 3a 21 3d 40 4f 42 bb
       0.038778476 0.056485884 0.039362513 -0.0029649287
000370 00 5a 54 39 92 bb 7b bd 0f ac af 3d e4 f9 d0 bc
       0.00020251423 -0.061458178 0.085777394 -0.025509782
000380 be 11 73 3d 4f b4 9c 3d 61 11 83 3d c2 07 68 3d
       0.059343092 0.07651579 0.06399799 0.056648023
000390 60 c2 91 bb e3 72 86 3d a9 57 9d 3d fc 66 fe bc
       -0.00444822 0.06564882 0.076827355 -0.031054966
0003a0 ce 59 2a bd cb f8 a4 bd d4 7b 01 3d 54 d8 a5 3c
       -0.04158955 -0.08055266 0.031612232 0.020244755
0003b0 dc 1c b1 3c 46 a2 83 bd 54 34 ac bd c0 c7 84 bd
       0.021620207 -0.064274356 -0.08408418 -0.06483412
0003c0 f2 a2 0f 3d da 78 24 3d d0 77 40 bc 48 06 50 3c
       0.035067506 0.040154316 -0.0117473155 0.01269681
0003d0 16 f8 50 bd 26 52 5e 3d 4f a5 09 bd d2 4a 3e 3d
       -0.051017843 0.05427756 -0.033604916 0.046458073
0003e0 16 9c 6c 3d e8 0a c9 3c 35 7c 96 3d b7 55 b3 bd
       0.057766043 0.024541333 0.07347909 -0.08756583
0003f0 60 5e c2 bb 7c 78 e5 3c 09 55 9c 3d 59 de ab bd
       -0.0059316605 0.028011553 0.07633407 -0.08392019

bias f4 [64]
000000 d0 b9 1a 3d 98 94 5e bc c4 1b cb 3c 24 62 ab bc
       0.03777486 -0.013585232 0.024793513 -0.02092082
000010 08 11 77 bd 57 fe 35 3d 67 cc 41 bd a6 4b 82 3a
       -0.060318977 0.04443201 -0.047314074 0.0009940758
000020 10 3c b1 3d ad f2 b3 bd 69 79 52 3c 83 60 9d 3d
       0.08654034 -0.08786521 0.012846329 0.07684424
000030 8d f0 c5 3c b9 f4 8f 3d 42 7d a6 3d cd 40 99 3d
       0.024162555 0.07029099 0.0812936 0.07483063
000040 b4 13 28 bc a6 bf ab 3d 00 64 56 bb b0 c3 8b bb
       -0.010258604 0.083861634 -0.0032713413 -0.004265271
000050 8d 58 a1 bc f8 30 dd 3c 14 a5 96 bc 80 e4 2f 3d
       -0.019695545 0.02700089 -0.018389262 0.042942524
000060 58 8c 8e bd db e8 ad 3d 23 94 7b 3c 0a e0 1d 3d
       -0.06960362 0.08491679 0.015355143 0.03854374
000070 e7 00 4e 3d 30 5c 1e bc d6 5d 0b bd 97 6e 8f bd
       0.05029383 -0.009665534 -0.034025036 -0.07003515
000080 db d2 b7 3c d8 b1 03 bd 94 d3 ad bd c7 1a 26 3d
       0.02243941 -0.032152027 -0.08487621 0.04055288
000090 81 47 97 3d 5a f0 84 3d 48 95 0a bc 5e 1c a3 3d
       0.07386685 0.06491156 -0.008458443 0.07964395
0000a0 55 df 63 3d 6f 69 9f bd 2f e9 0c bd 31 77 20 bd
       0.055632908 -0.07783782 -0.03440207 -0.03917617
0000b0 8f 70 4b 37 62 f1 1a 3d 44 78 36 3d 83 ea ac 3c
       1.212595e-05 0.037827857 0.044548288 0.021107918
0000c0 68 0a 9c 3c d8 86 e2 bc a5 74 a7 3d 49 4e 40 bd
       0.01904793 -0.02765219 0.08176545 -0.04694966
0000d0 8e 2c ce 3c 74 df 1d 3c 25 ef 89 bd 5e 2c 73 bd
       0.02516773 0.009635795 -0.06735066 -0.059368484
0000e0 a1 8d 7f 3d e9 17 36 3d 0e d4 15 bd 00 6e 6d 3b
       0.062390927 0.044456396 -0.036579184 0.0036228895
0000f0 82 5e a0 3d d0 0c ac bd 2c 25 b0 bc 00 d8 09 ba
       0.07830526 -0.08400881 -0.0215021 -0.0005258322

weight f4 [64, 64, 3]
000000 a4 c0 af bc 62 2b 45 3d 06 5c 1b 3d bc 83 53 3d
       -0.021454163 0.048137076 0.037929557 0.051639304
000010 52 8e cf bc 92 b1 40 bd 9e 56 3d bd 84 8f ea 3c
       -0.025336418 -0.047044344 -0.046225183 0.028632887
000020 76 83 0e 3d 7d a8 1c bd 44 7f 47 bd 79 5a 30 bd
       0.03479334 -0.03824662 -0.048705354 -0.04305503
000030 38 d1 f0 3c 70 ef 15 3c 08 e2 e2 3c 15 b1 23 3c
       0.029396638 0.009151325 0.02769567 0.00999095
000040 90 a5 88 3d ff ad ff 3c bc ba 8e 3d 3b 21 8f bd
       0.066722035 0.031210897 0.069692105 -0.0698876
000050 6a dc 40 3d 56 a7 d7 3c 82 1b e0 3c 6f 7f 32 3d
       0.047085203 0.02632491 0.027356867 0.04357856
000060 d6 05 08 3d ce 98 56 3d 29 7c 85 bd 78 93 08 bc
       0.03320869 0.05239182 -0.06517822 -0.008335941
000070 ea ed 0d bd a4 45 c9 bc cb 2b c5 3c 04 61 70 3d
       -0.03465072 -0.02456934 0.024068734 0.05868627
000080 8f fe 54 bd a9 a2 70 bd b7 f0 72 3d ac 3b 52 bc
       -0.05200058 -0.058748875 0.059311595 -0.01283161
000090 d4 b6 b6 3c 79 9b f8 3b fe 94 af bc e6 81 60 3c
       0.022303976 0.007586893 -0.02143335 0.013702845
0000a0 1f 37 1f bd 3e f3 17 bc 7e 4e da 3c e4 2d 84 3d
       -0.038870927 -0.009274302 0.026648756 0.064540654
0000b0 0e 89 6c 3c 3a 2d e2 3c 69 63 b1 ba d8 6b 01 3d
       0.014436973 0.027609456 -0.0013533655 0.03159699
0000c0 1b 17 38 bd f6 7f 3d 3c 2c ac 89 bc 52 c1 d9 bc
       -0.04494391 0.011566153 -0.01680573 -0.02658144
0000d0 34 7f 82 3d bf 77 10 3d ec a9 47 bd 00 47 dc ba
       0.06371918 0.03527045 -0.048746035 -0.0016805828
0000e0 98 b9 c5 3c d8 23 21 3c c0 dd 9f ba 2c 90 1c 3d
       0.02413635 0.009835206 -0.0012196824 0.03822343
0000f0 81 34 2d bd 24 e7 e1 bc f1 8c ee 3b 5e 2c 6f 3c
       -0.0422864 -0.027576037 0.007279985 0.01459798
000100 74 5a 47 bd 2a 72 85 3d 36 c0 a7 bc c0 83 45 3c
       -0.048670247 0.06515916 -0.020477396 0.012055337
000110 4a 0a 8c bd a7 77 96 bc 51 50 db bc b5 a4 13 bc
       -0.068379 -0.018367602 -0.026771696 -0.009011437
000120 74 8b 3c bd a4 c8 1a bd 40 49 77 3b 39 a0 66 3d
       -0.04603143 -0.037789002 0.003773287 0.056305144
000130 82 a1 4a 3c 7b 38 ba bc 7b d3 be b9 cf e7 25 3d
       0.012367608 -0.02273201 -0.0003639719 0.040504273
000140 a5 8c 23 bc 35 16 39 bd a5 45 4d bd 28 da 10 bc
       -0.009982263 -0.045187194 -0.050115246 -0.008841075
000150 a4 86 dd 3b 5c 77 13 3d f8 5b 34 3c 32 cc 26 bd
       0.006760435 0.0360025 0.011008255 -0.04072208
000160 fa ac 29 3d f6 eb 2a bd fe 34 99 bc a6 fc 84 3d
       0.04142473 -0.041728936 -0.018702026 0.06493501
000170 b9 c7 20 3d 55 77 02 bd 1d d5 62 bd ac b7 2f 3d
       0.03925297 -0.031852085 -0.055379022 0.042899773
000180 d8 ad 19 bd dc 6c 22 3d 39 72 19 bd fe b4 84 3d
       -0.037519306 0.039654598 -0.037462447 0.06479834
000190 70 00 f2 3c ce 1f 60 bd ed 3f 0e bd 2b ed 04 bd
       0.029541224 -0.05471783 -0.034728933 -0.032452744
0001a0 90 26 a0 bc 33 b7 74 3d 83 63 35 bd 83 97 e3 3c
       -0.019549638 0.059745025 -0.044284355 0.027782207
0001b0 34 1e da bc d2 47 d6 3c 75 ae 8e 3d 3e 9a 31 3c
       -0.02662573 0.026157293 0.06966869 0.010839997
0001c0 d1 7b 68 3d 8c be df bc 76 25 1e bd f8 9b 00 bc
       0.056758706 -0.02731254 -0.038609944 -0.007849686
0001d0 80 8f 01 3c 95 2e 05 bd 7a 8c 26 bd b0 de d7 3c
       0.007907748 -0.032515127 -0.040661313 0.026351303
0001e0 63 32 5e bc a3 9a 19 bc 92 6a 8b 3d 8c 33 cb bc
       -0.013561818 -0.009375247 0.06807436 -0.024804853
0001f0 36 a4 8d bc 61 9a 26 bd dc d0 5d 3d a2 2f 50 3d
       -0.017290216 -0.04067457 0.054154262 0.050826676
000200 39 dc 7d bd 90 66 5c bc d4 57 56 bd c0 fe f6 3a
       -0.0619776 -0.013452187 -0.052329853 0.0018844232
000210 7a 26 2e 3d c9 89 e0 3c b4 fd 09 3d 00 86 58 3d
       0.042517163 0.027409451 0.033689216 0.052862167
000220 4c d9 84 bd a3 ea 20 bd 70 ff 1e 3d 6e b0 20 3d
       -0.064867586 -0.039286267 0.038817823 0.039230756
000230 b8 c1 23 bd 38 40 3f 3d 85 92 26 bd c9 47 a8 3c
       -0.039979666 0.046692103 -0.040667076 0.020542042
000240 df 7b af bc 57 f7 65 bc 50 09 30 bc 20 7d c9 3c
       -0.021421371 -0.014036021 -0.010744408 0.024595797
000250 82 44 8f 3d 37 4c 6b bd e5 96 f9 bc e6 05 5f 3c
       0.06995489 -0.05744573 -0.03046746 0.013612246
000260 7b 0c 91 3d 76 6e 2d 3d 6c 58 6f 3d 8c 83 84 3d
       0.070824586 0.042341672 0.058433935 0.06470403
000270 21 d0 02 bd e8 d4 23 bd 73 df 1e 3d 09 d4 85 3c
       -0.03193677 -0.039997965 0.038787317 0.016336458
000280 4d 96 91 bc a9 82 fb 3c 96 83 06 bd 8c 5e 89 3d
       -0.017771864 0.030701952 -0.032840334 0.067074865
000290 34 09 5d bd ea 38 26 3d 40 af da ba 20 51 3f 3c
       -0.053963855 0.04058162 -0.0016684309 0.011677057
0002a0 e1 b5 8b 3c 39 0e 8a bd 89 8b 73 bd 3e 4d 90 bd
       0.0170545 -0.06740994 -0.059459243 -0.07045983
0002b0 af 9b d5 3b b1 22 a1 bb c4 17 e4 3c ca 15 8c 3d
       0.006518803 -0.0049174656 0.027843364 0.068400934
0002c0 36 c1 1c 3d 76 6b 62 bd 80 39 25 ba 10 b3 63 3d
       0.038270198 -0.055278264 -0.00063028187 0.05559069
0002d0 19 60 34 3d 79 ff 49 3d 6d 15 20 bd 42 17 74 bd
       0.04403696 0.049315903 -0.039082933 -0.059592493
0002e0 be a9 e8 bc 24 41 0b bd 98 97 90 bd d0 55 9d 3c
       -0.028401252 -0.03399767 -0.07060164 0.019205958
0002f0 40 8f 5e bb 80 57 e2 3b d4 06 4d 3d e6 b7 66 bd
       -0.0033959895 0.0069074035 0.05005534 -0.056327723
000300 d0 f1 81 3b 6c ba ba bc 28 01 63 3c 70 e7 40 bd
       0.003965594 -0.022793971 0.013855256 -0.047095716
000310 82 a6 6c bd 14 87 67 bd fa cb 87 bd 5c 8d 70 3d
       -0.05777598 -0.056525305 -0.06630702 0.05872856
000320 e2 ea 61 bd c4 25 8b bd 44 1a 11 3d c0 91 ad 3a
       -0.055155642 -0.067943126 0.03542544 0.001324229
000330 40 ea 48 3b 40 0e 69 bc b2 d9 24 bd a8 ba 2f bc
       0.0030657202 -0.014224589 -0.040246673 -0.010725655
000340 fb 57 2d bd c6 9b 39 bd f0 2f c3 3c 20 ad 65 3c
       -0.042320233 -0.045314573 0.02382657 0.014018327
000350 ff 0b 20 bd 22 9f 74 bd f0 33 5d 3d 68 5d 73 3c
       -0.03907394 -0.059722073 0.05400461 0.014853813
000360 dc d9 ee 3c 54 ce 91 bc c4 18 50 3d 76 bb 87 bc
       0.029156618 -0.01779858 0.05080487 -0.01656888
000370 a6 bc 80 3d 40 78 fc bc 86 2a 62 bd b4 2f 86 3c
       0.06285982 -0.030819058 -0.055216335 0.016380168
000380 a2 66 29 3d 70 41 39 bd b4 bd c1 3c 9e ee 53 3d
       0.041357644 -0.04522842 0.023650028 0.051741235
000390 18 2e 3b 3c 38 9f b0 bc 80 35 a7 3c 6e 8c e9 bc
       0.011424564 -0.021560296 0.020411253 -0.028509345
0003a0 50 a6 06 3d 0e 10 19 3d 92 48 4e 3d ca d4 8f 3d
       0.03287345 0.037368827 0.050362177 0.07023008
0003b0 a0 fd 3d 3c 9e fc 88 bd c8 4c 8f bc 54 28 80 3c
       0.011596113 -0.06688808 -0.017492667 0.01564423
0003c0 58 aa 6b bd 3c ab c4 3c ec bf cf 3c d0 ed b7 3b
       -0.0575355 0.024007432 0.02536007 0.0056130663
0003d0 82 95 10 3d 50 36 77 bd 16 1d 8f 3d a4 a1 3e 3d
       0.03529883 -0.06035453 0.069879696 0.04654087
0003e0 50 80 08 bc da e1 b1 bc 24 ee 5a 3d 00 da 21 bd
       -0.008331373 -0.02171414 0.053449765 -0.03951454
0003f0 9e 00 06 bd f8 52 41 3c b6 69 17 3d 60 a1 80 3b
       -0.032715432 0.011799566 0.03696605 0.0039254874

bias f4 [64]
000000 ca 48 de 3c b6 77 98 bc 24 f8 a0 bc 7e 9a 44 bd
       0.027134318 -0.01861177 -0.019649573 -0.047998898
000010 d8 8a 63 bd 0c 17 90 bd 80 81 82 3d da 54 ba 3c
       -0.055552334 -0.07035646 0.063723564 0.022745539
000020 a8 5f 41 3d 35 07 6e 3c bc ed ac 3c 11 45 85 bd
       0.047210366 0.0145280855 0.021109454 -0.06507314
000030 81 cf 81 bd 84 5b c1 bc 8c a7 6d bd 7e ef 4e bd
       -0.06338406 -0.023603208 -0.058021113 -0.050521366
000040 19 95 85 bd 3d 6c 48 bc 81 04 4e bd 71 2b 14 3d
       -0.06522579 -0.012232837 -0.050297264 0.03617424
000050 7e b7 5b 3d 9a 4e 73 bc 4d 2f d0 3c 71 ce 3a 3d
       0.05364179 -0.014850283 0.02541318 0.045607034
000060 76 6e 6a bd d0 1f 52 bd 0d f0 25 bd 60 f4 81 bb
       -0.05723425 -0.05129987 -0.040512133 -0.0039658993
000070 ef cd 81 ba 08 e9 32 bd cf f3 84 3c 74 73 c0 bb
       -0.0009903292 -0.043679267 0.016229538 -0.005873138
000080 0c 3d b4 bc 48 80 04 3d c4 49 41 3d 9c ee 85 3c
       -0.022001766 0.0323489 0.04718949 0.01634913
000090 6c ba 24 bc 6a dc eb bc 70 f5 cb 3b cc 30 92 3d
       -0.010054212 -0.028791625 0.006224327 0.071382135
0000a0 25 71 8a bd 8e 6c 85 3d 68 32 5b bd 3b 4d 4c 3d
       -0.06759862 0.06514846 -0.053514868 0.04987834
0000b0 51 73 0a 3d ff 2d 8c 3d aa bb 20 bd 45 b1 63 3d
       0.03380138 0.068447106 -0.03924147 0.05558898
0000c0 dd 24 88 bd 59 c7 30 bd c0 3b 77 3b bd 10 08 bc
       -0.06647656 -0.043158863 0.0037724823 -0.008304772
0000d0 83 f3 c7 bc 80 50 be 3b 48 37 e5 3c b2 17 93 3d
       -0.024408108 0.005807936 0.027980462 0.07182254
0000e0 4d a7 78 bd 5c d7 08 3d 20 a6 f6 3c fc 5d a1 3c
       -0.060706425 0.033408508 0.030108511 0.019698136
0000f0 c5 55 6e bd d0 25 14 bd 3e 9b 39 3d aa a0 61 3d
       -0.058187265 -0.036168873 0.045314066 0.05508486

weight f4 [128, 768]
000000 1b 5d de ba 4f 54 cd 3b 74 56 9a 3c 28 97 8f 3c
       -0.0016965003 0.006266154 0.018840052 0.017528132
000010 cc b9 9b 3b a9 2f c5 3c 7d d0 95 bc 96 60 1c bc
       0.0047523733 0.024070578 -0.018287892 -0.009544512
000020 3a 73 91 bb 34 53 0b 3d 64 f2 27 bc af d0 bf 3c
       -0.004438785 0.034014896 -0.0102506615 0.023414938
000030 bc f8 a2 bb 10 e4 ed bb e7 e2 11 bd 5c 92 cc 3c
       -0.004973499 -0.007259853 -0.03561678 0.024972133
000040 47 8d 09 bd 41 ad 13 bd da ef 0f 3d 38 54 3e 3c
       -0.033582 -0.0360539 0.03514085 0.011616759
000050 16 85 fa bc c0 e9 64 bb dc c9 48 3c e8 f6 ce 3c
       -0.030581038 -0.0034929365 0.012255158 0.025264218
000060 28 cb fd bc df 7f a3 bc 3a 8a 90 bc d0 de 75 bb
       -0.030980662 -0.019958435 -0.017644037 -0.003751684
000070 34 78 6d 3c 62 6c ca 3c 35 32 c4 bc 5c 05 d6 bc
       0.014493991 0.024709884 -0.023949722 -0.026125602
000080 a0 00 0a 3c de 76 0e 3d 4e 99 c2 bc cc f2 cd bb
       0.008423001 0.03478133 -0.023754742 -0.006285047
000090 d6 bd b5 bc 5c d9 1c 3c ea 78 46 bc a8 af 05 3d
       -0.022185247 0.009573307 -0.012113789 0.032638222
0000a0 f0 9a 2e bb 48 73 2a 3c 2e c0 e5 bc e7 40 86 bc
       -0.0026642643 0.010403462 -0.02804574 -0.01638837
0000b0 e8 06 d4 3c ec 13 4b bc 00 ea 31 ba 90 df 8a bb
       0.0258822 -0.012394886 -0.0006786883 -0.0042380765
0000c0 74 ca 33 3c 86 c6 c5 3c e8 2a d6 bc fc ba 02 3c
       0.010973562 0.024142515 -0.026143506 0.007979151
0000d0 fc e1 fc 3c a0 02 80 bc fc 02 f2 3c f3 c5 99 bc
       0.030869476 -0.015626252 0.029542439 -0.018771147
0000e0 f0 4e c9 bb 1c 31 48 3c 74 e8 e0 bc d4 12 ed 3c
       -0.0061434433 0.01221874 -0.027454592 0.028939642
0000f0 3c fb 0f bc fc 1a 63 3c ba 28 ad 3c 00 2d 3f 3c
       -0.008787926 0.013861414 0.021137584 0.011668444
000100 e8 56 9d 3c 60 70 1a 3c 8e 87 8d 3c c4 ff da 3c
       0.01920648 0.009426206 0.017276552 0.026733287
000110 a0 2c aa ba 42 ac 05 bd 62 6c f7 bc fc 26 a5 3c
       -0.001298327 -0.03263498 -0.030203048 0.02016019
000120 70 5a f7 bb de cb b9 bc b1 65 bf 3c f7 89 a8 3c
       -0.007548623 -0.02268022 0.02336392 0.0205736
000130 61 ce 1a 39 4b d0 b1 bc 52 1c 20 3d 65 ab 93 3b
       0.00014763467 -0.021705767 0.03908951 0.004506516
000140 77 cb 90 3b 37 c3 ea 3c 0d c1 af 3b b9 21 0c 3d
       0.004418786 0.028657539 0.0053635896 0.034211848
000150 df 22 87 bc e5 24 ca 3c cf 6e c1 3c 0f 3d 8e 3c
       -0.01649612 0.024675796 0.023612408 0.0173631
000160 de c8 6f bc ae 72 b0 3b 1a 4b 06 3d 03 82 fd bc
       -0.014635293 0.0053847646 0.032786466 -0.030945783
000170 e4 1e 36 3c f6 7b b6 bc 60 b9 1c 3d 76 86 10 3d
       0.011115763 -0.022275906 0.038262725 0.035284482
000180 04 e2 65 3c c4 45 7e bc 3d 43 f8 bb 6a 9c b1 bc
       0.014030937 -0.015519563 -0.007576375 -0.02168103
000190 68 e1 33 3c 91 5d 1e 3d c0 2e ec bc a8 3e aa bc
       0.010979034 0.03866345 -0.028830886 -0.02078183
0001a0 7e 6e 02 bd 80 75 8b bc 51 41 09 3c eb d5 76 bc
       -0.031843655 -0.017023802 0.008377389 -0.01506565
0001b0 ce 86 e6 3b de 3d 34 3b b9 5b 68 bc 71 4d 6e bc
       0.007035113 0.0027502696 -0.014182025 -0.014544831
0001c0 f9 69 77 bc 83 a0 a5 b9 d8 c9 03 bd 0f 05 06 bd
       -0.015100949 -0.00031590843 -0.032174915 -0.032719668
0001d0 04 58 53 bc e7 00 ca bc ae 62 07 3d 09 60 0e 3d
       -0.0128994025 -0.024658633 0.033053093 0.034759555
0001e0 bf d7 c3 bc 24 41 03 bd 0e 66 b2 bb 70 05 5e 3c
       -0.023906587 -0.032044545 -0.005444295 0.013551101
0001f0 7b a9 d1 ba 04 bd 5d 3c 58 e5 00 3d 6b b9 12 3d
       -0.0015995944 0.013533834 0.03146872 0.03582136
000200 db 52 17 3d 66 9f a3 3c b8 d2 e3 3c 51 f7 93 3c
       0.03694425 0.019973468 0.02781044 0.018062266
000210 5c 9e 08 3d d4 54 79 3c c4 22 ea 3c ba 3f f4 bc
       0.03335415 0.0152179785 0.02858103 -0.029815543
000220 20 85 0d bd 4c 86 bc bb c0 9a f5 3b c3 58 c2 bc
       -0.034550786 -0.005753314 0.0074952543 -0.023723966
000230 f4 77 8a bc 58 2e 2c bc 24 0d ae bc 7e d3 03 bd
       -0.016902901 -0.010509096 -0.0212465 -0.032184117
000240 42 05 07 bc 80 f0 87 bc 62 29 a6 bc 80 cd 7f bc
       -0.008241 -0.016594172 -0.020283405 -0.01561296
000250 54 b4 eb bc be cc c7 bc e8 d5 30 bc dd c8 80 bc
       -0.02877251 -0.02438962 -0.010793187 -0.01572078
000260 d8 ab 0e 3c 02 49 29 bc 82 b3 67 bc 22 72 11 bc
       0.008707963 -0.010332348 -0.014141919 -0.008877309
000270 54 48 a2 bc 2f f5 8e bc 1c 9a 7e bb 8d 0b cf bc
       -0.01980988 -0.017450897 -0.003884918 -0.025274063
000280 ab 76 ab 3c 60 de b3 bb 4c c4 d6 bc c9 2e 92 bc
       0.020930609 -0.0054891557 -0.026216649 -0.017844575
000290 a6 a8 75 bc 0c 28 4c 3c 85 24 e5 bc 1f 7c 91 3c
       -0.014993822 0.01246072 -0.027971515 0.01775938
0002a0 32 f3 3b bc b0 7b 0f 3d 14 d0 c1 bb 2c 8d e7 3c
       -0.0114715565 0.035030067 -0.0059146974 0.028265558
0002b0 a0 75 67 3c 08 bc 55 3c 47 35 fc bc f0 21 ee 3c
       0.014127165 0.013045318 -0.030787123 0.029068917
0002c0 b0 76 cf bc 50 49 5a 3c 48 59 6b bc 89 d8 01 bd
       -0.02532515 0.013323143 -0.014364548 -0.031700645
0002d0 88 87 d3 3c 48 ab 9f 3b 2e 14 fa bc 16 ad 87 3c
       0.025821462 0.0048727132 -0.0305272 0.016562026
0002e0 5c a5 c0 3c 9e 5d b9 3c a8 5d 2a 3c 94 b0 06 3c
       0.02351635 0.022627648 0.010398306 0.00822081
0002f0 a0 44 ab bb a8 3e 02 3d 46 1e b7 3c 70 70 c7 3c
       -0.0052266866 0.031798035 0.022353303 0.024345607
000300 40 9e dd ba a8 4c 85 bb 54 1a 0a bc 64 e8 1e bc
       -0.0016908124 -0.004067976 -0.008429129 -0.009698961
000310 9d 84 10 bd ca bb 82 3c 76 1e 13 3d b4 30 df 3c
       -0.03528272 0.015958685 0.03591772 0.027244903
000320 c0 08 2e 3b c0 3b 41 3c 40 b3 ce 3a 5c 2a b0 3c
       0.0026555508 0.011794031 0.0015769973 0.021504574
000330 0c 87 4b bc 46 b6 04 bd da 7f e7 3b 1c 15 31 3c
       -0.012422334 -0.032400392 0.0070648016 0.0108082555
000340 a3 2f e0 bc 12 ae 67 bc a0 7b 44 bc 3b 7f e4 39
       -0.027366465 -0.014140623 -0.011992365 0.00043582343
000350 fb e6 77 bc f7 5b a7 bc cc 01 51 bb 0c 35 a6 bb
       -0.015130754 -0.020429594 -0.003189194 -0.0050722416
000360 b8 f9 9a 3b ba 7b 98 3c 28 33 96 3b f0 0e 8b 3c
       0.004729476 0.018613685 0.004583735 0.016974896
000370 e0 10 0f 3b d6 14 83 3c fc 5b 47 3c 06 e9 12 bd
       0.0021830127 0.016001146 0.012167927 -0.03586676
000380 dc 0c 06 3d d2 f2 21 bc 14 24 e3 3c 62 d3 f4 bc
       0.032727107 -0.009884553 0.027727164 -0.029885951
000390 f2 d4 ec bc 48 0a bf 3c fd b6 e5 bc 32 47 5d 3c
       -0.028910134 0.023320332 -0.028041357 0.013505744
0003a0 04 b1 a1 bc d6 fc 5e 3c 21 e5 fc 3b 7e 03 9a bc
       -0.019737728 0.0136100855 0.007717744 -0.018800493
0003b0 d3 32 d8 bc 62 4d c0 3c dc 90 0d 3d b3 1f 03 3d
       -0.026391422 0.023474399 0.034561977 0.032012653
0003c0 97 7a 4e 3c 26 b6 05 3d 17 9a 03 bc 0b ae cc 3b
       0.01260247 0.032644413 -0.008032343 0.0062463335
0003d0 c7 c4 c1 3c d5 21 0a bb d2 a4 10 3d ad 11 be 3c
       0.023653401 -0.0021077294 0.035313435 0.023201788
0003e0 71 21 0a 3d 57 ec 7c 3b 23 9a b6 bc 27 4e 14 3c
       0.0337233 0.0038593018 -0.022290295 0.009051836
0003f0 36 61 4e bb f1 b8 e2 bc 8b c5 3c bc 5b 8a 0e 3c
       -0.0031491048 -0.027676078 -0.011521707 0.008699979

bias f4 [128]
000000 0d 43 60 39 fa 3b dc 3c fb aa 49 3c 00 67 8d bc
       0.00021387283 0.026884068 0.012308831 -0.017261028
000010 24 d6 75 bc 15 7d f7 3c 55 1e a0 bb 34 b7 01 3d
       -0.015004668 0.030211011 -0.0048864284 0.031668857
000020 80 49 3c 3c 85 03 a9 3c 79 41 0e 3d 48 a5 a1 3c
       0.011492133 0.020631561 0.03473041 0.019732133
000030 08 3a 18 3c 45 a6 e7 bc 2a d4 18 3d 4c ac 2c 3c
       0.0092911795 -0.028277526 0.03731171 0.010539126
000040 ed 74 8f 3c 4b 0c 92 3c 9d 10 ee 3c ac 20 26 bc
       0.01751181 0.017828127 0.029060656 -0.0101396255
000050 f8 33 8f 3c 1f 9f 55 3c 8c c1 a0 3b 47 c8 0a bc
       0.017480835 0.013038426 0.004905885 -0.008470601
000060 3a c0 e2 3c 88 9d ea 3c 9f 30 7f 3b e8 a2 9f bb
       0.027679551 0.02863957 0.0038938893 -0.004871715
000070 87 90 da bc ef f3 e0 3c 00 5c 8c ba ad f7 02 bd
       -0.026680244 0.027460067 -0.001070857 -0.031974483
000080 59 55 8e 3b 31 54 19 bb 1c 69 e7 3c 6d 64 0c 3d
       0.0043436703 -0.002339613 0.028248362 0.03427546
000090 5e fa 15 3c 3b bc a0 bc c8 2c 32 3c 47 eb a1 3c
       0.0091539305 -0.019621005 0.0108749345 0.01976551
0000a0 96 87 03 3d 34 92 0b bd d8 cb a1 3b 7f 75 80 3c
       0.032111727 -0.034074977 0.00493763 0.015681027
0000b0 38 c5 f5 bb 4d ed 09 3d 9b 84 aa 3c dc 5d ea 3c
       -0.007500317 0.033673573 0.020815184 0.028609209
0000c0 ad 6d 03 3d 78 57 2e bc 8d a4 7e 3c 85 dd be 3b
       0.032087017 -0.010640971 0.015542162 0.005824747
0000d0 c6 da b3 3c fe 85 80 bc 40 ff db 3b 2c ae bc bc
       0.021954905 -0.015688892 0.006713778 -0.02303227
0000e0 f4 82 05 3d 48 df ff bb d0 6f 13 3b 12 0b 00 bd
       0.03259559 -0.0078085996 0.0022497065 -0.031260557
0000f0 da 69 c7 bc 7a 92 53 bc 78 d8 c8 bc e9 8f df 3c
       -0.024342466 -0.012913341 -0.024517283 0.027290301
000100 c2 08 a2 3c 98 87 14 bc 53 cf 2b 3c c3 09 11 3d
       0.019779567 -0.009065531 0.010486442 0.0354097
000110 00 09 ba ba 20 ee c5 ba 08 1b 00 3d 80 65 b3 ba
       -0.0014193356 -0.0015100874 0.03127578 -0.0013686866
000120 b7 bf bf 3c 44 15 82 bc 12 59 de bc 23 46 24 3c
       0.023406846 -0.01587928 -0.027142081 0.0100264875
000130 9b 3d 80 bc c0 c7 a5 bb f4 6c 99 3c d0 2f 38 3b
       -0.015654376 -0.0050592124 0.01872871 0.002810467
000140 a8 d2 de 3c 00 9d 68 39 f4 6d cb 3c 41 a7 9a bc
       0.027200058 0.00022183731 0.024832703 -0.018878581
000150 08 e8 f0 3c 2e 83 fd bb 51 a4 c6 bc fe 2c 02 3d
       0.029407516 -0.007736585 -0.024248274 0.03178119
000160 15 55 4a ba a4 75 a8 bb 0f 2a 86 3b 6a d9 c2 3c
       -0.00077183667 -0.005140977 0.0040943692 0.023785312
000170 b8 55 02 3d e2 ee cd 3c 49 0a 01 bd cd 24 86 3c
       0.03182003 0.025138322 -0.03150395 0.01637497
000180 be 66 9f bc 68 c9 e2 bc 06 77 88 b9 00 cf 10 bb
       -0.019458171 -0.027683929 -0.0002602862 -0.0022096038
000190 0a 90 84 3b df 1d 04 bd 7a 9f 03 3d ec 00 e0 bb
       0.004045491 -0.03225505 0.03213451 -0.0068360474
0001a0 f8 7b c7 3c ec ad 06 bd 7a 51 f2 3c 87 b5 06 bd
       0.024351105 -0.03288071 0.029579867 -0.03288796
0001b0 db 37 a1 bc 67 dc 6e 3c 28 0b 0c bc eb 36 0f 3d
       -0.019679954 0.014578915 -0.008547582 0.034964483
0001c0 ec 89 ac 3c 2c 83 c3 bc bc d1 cd bc 76 16 87 bc
       0.02106186 -0.023866259 -0.025124423 -0.016490202
0001d0 8e 91 42 bb ce 57 f3 bc c8 6f d9 bc 00 46 59 bb
       -0.0029688808 -0.029704954 -0.02654256 -0.0033153296
0001e0 00 3f 02 3d ce e3 d9 bc f0 c8 33 bc c0 c3 fc bb
       0.031798363 -0.026597884 -0.0109732 -0.007713765
0001f0 8d 7d 9c 3c 46 06 f8 bc 9e bd 04 3c 7c df 12 bd
       0.019102836 -0.030276429 0.008101849 -0.035857663

weight f4 [4, 128]
000000 d0 3a 8c bd 99 63 48 3d 10 30 7a bd ac 26 27 3d
       -0.06847155 0.04892311 -0.061080992 0.040808365
000010 49 e3 16 3d d0 9e b2 bd 34 da ab 3d b3 55 9c 3d
       0.03683785 -0.08721697 0.08391228 0.07633533
000020 88 99 1d bc 39 11 7a bc c8 8b 1c 3d f7 29 80 3d
       -0.009619124 -0.015262895 0.038219243 0.06258004
000030 2d 79 97 3d 4a 9d fc bc 08 f2 ae bd f0 c1 b8 3c
       0.07396159 -0.03083672 -0.085422575 0.022553414
000040 aa 4b eb bc cd 30 60 bd 6d 7b 54 bd 45 7d 00 3d
       -0.028722603 -0.05473404 -0.05187552 0.031369466
000050 03 b7 92 3d b6 6c 02 3d 2d f7 65 3c 14 00 63 3d
       0.07163813 0.031841956 0.014035982 0.055419996
000060 b1 f0 58 3d ed db 55 bd 1c fb 98 bb b2 28 aa bd
       0.052963916 -0.05221169 -0.0046686064 -0.08308543
000070 79 20 89 3d 5d f6 5e 3d d1 9d 0d bd 09 bc 8a bd
       0.06695647 0.05443417 -0.034574334 -0.06774146
000080 24 09 45 bd 1c e5 57 bd cb 1a 7f 3c 87 86 24 bd
       -0.04810442 -0.05270873 0.015570353 -0.040167358
000090 50 cc da bc f2 54 61 3d 35 e7 02 3c 74 e3 3b bd
       -0.026708752 0.05501265 0.007989694 -0.045871213
0000a0 1d b3 64 3d 28 50 a6 bd 32 f0 30 3d cd 91 a4 3d
       0.05583488 -0.08120757 0.043197818 0.08035622
0000b0 82 cb 4d 3d 0d c5 a9 bd 80 90 1f bd 2c f5 b3 bd
       0.05024291 -0.082895376 -0.038956165 -0.08786997
0000c0 31 06 7b 3d 20 f5 b1 3b 90 3b 50 3d d7 73 f9 3c
       0.0612852 0.0054308325 0.050838053 0.030450745
0000d0 bc ae a4 3d e2 60 42 3d 48 0a 5b 3c 89 9c 8e bd
       0.080411404 0.047455676 0.01336915 -0.069634505
0000e0 1a 15 4f 3d 97 91 5b 3d 51 77 19 bd d5 4e 51 3d
       0.050557233 0.053605642 -0.037467305 0.05110057
0000f0 80 d5 63 3a 24 4e de 3c b4 04 08 3d e3 58 a4 bd
       0.0008691177 0.02713687 0.03320761 -0.08024766
000100 db 1d b7 bd c8 17 a7 3d 0c bd 14 bd 96 eb 55 bd
       -0.08941241 0.08158833 -0.0363131 -0.052226625
000110 d1 ff 86 3d 3a 6b 61 bd 58 3f 29 3d 08 93 59 bd
       0.06591762 -0.0550339 0.041320175 -0.053118736
000120 e3 bd aa bd be 73 80 bd e5 45 63 bd b8 4d 36 3d
       -0.08336999 -0.06272076 -0.05548658 0.044507712
000130 d0 3c 33 bc f8 28 6c 3c 00 ae 8f 3d d9 a3 01 bd
       -0.010939792 0.014414065 0.0701561 -0.031650398
000140 ef 59 0d bd aa ce 73 3d 77 58 b3 bd 8e b5 45 bd
       -0.034509595 0.059523262 -0.08757108 -0.048268847
000150 cd 64 1c 3d a5 8c 58 3d e8 5c 9f bd 2b ee 40 3d
       0.03818207 0.052868504 -0.07781392 0.047102135
000160 7a 3f c7 3c f3 25 86 bd 6a aa 31 3d 0e d6 84 bd
       0.02432226 -0.06550207 0.04337541 -0.0648614
000170 18 1a 17 bd c1 cf 92 3a 97 99 21 bd 2e 71 a8 3d
       -0.03689012 0.0011200832 -0.039453115 0.08224712
000180 f1 9f 57 3c e8 3d 6e 3c 53 fe ab 3c e8 0b 44 3c
       0.013160692 0.014541127 0.020995295 0.011965729
000190 2e d0 1a 3c e8 06 ea bc 97 4d 59 bb 5a ce 47 bd
       0.009449048 -0.028567746 -0.003315782 -0.048780777
0001a0 eb 7e 18 bc d8 46 23 3c fc c7 b0 bd 89 9d 64 bd
       -0.009307603 0.009965621 -0.08631894 -0.0558143
0001b0 48 14 f4 bc 02 7a ab 3c 78 81 2e 3c a8 18 b5 bd
       -0.029794827 0.020932201 0.010650985 -0.088425934
0001c0 7d 83 9a bd d4 98 8f 3c 5b d8 99 3d 02 ad 2a 3d
       -0.07544611 0.017528929 0.0751197 0.0416689
0001d0 eb 3d 9a 3c c3 56 b3 3d 99 de a5 3d 40 fa 97 bb
       0.018828353 0.08756783 0.08099098 -0.0046379864
0001e0 87 5b 8b 3d aa 3d 6e 3d 50 33 af 3c f0 e4 24 bd
       0.06804567 0.058164276 0.021386772 -0.040257394
0001f0 18 83 a1 3d e3 79 71 bd 8c 9d 5e 3d d4 29 9d bd
       0.07886332 -0.05895413 0.054349467 -0.07673994
000200 0b 84 b5 3c 47 55 04 3d dd d1 1c bd 17 1e e1 3b
       0.02215769 0.03230789 -0.03828608 0.006870042
000210 d7 61 85 3d d5 cd 5a bd c5 68 26 bb 9f 74 12 bd
       0.06512802 -0.053418953 -0.0025392037 -0.03575575
000220 20 ac a6 bd 83 40 f6 3c 52 19 48 bd 69 a0 83 3d
       -0.08138299 0.030060058 -0.048852272 0.0642708
000230 d1 47 22 bd 6d 73 63 bd 14 ff 68 3d 6e df 7f bd
       -0.03961927 -0.05553 0.056883886 -0.06246894
000240 11 41 98 bc af df 41 bd 4e 18 f8 3c 9f a2 79 bd
       -0.018585714 -0.047332462 0.030285027 -0.060946103
000250 dd a6 12 3d 44 63 b5 3d 20 b6 9d bd 4e e3 04 bb
       0.035803664 0.08856824 -0.07700753 -0.0020277086
000260 20 03 f7 3c 6a a6 02 3d 4c 9c 89 bd e3 f1 a8 3d
       0.030152857 0.031896986 -0.067192644 0.08249261
000270 d9 f4 ab 3d 8b c9 a7 bc 61 2e ae 3d 60 ea af 3b
       0.0839631 -0.020481845 0.0850494 0.005368516
000280 93 d6 84 3d ac 3b bd 3c d4 92 71 bd a3 a2 56 3d
       0.06486239 0.023099743 -0.058977917 0.052401196
000290 03 52 7a bd 0c 4c 9f bd 17 5a 6f 3a 34 b7 87 bd
       -0.06111337 -0.07778177 0.0009130551 -0.0662674
0002a0 9f e0 19 3d f2 77 82 bd b1 74 a7 3d 27 da 0e 3d
       0.03756773 -0.06370534 0.08176554 0.034876015
0002b0 ba 1f 5e 3d 3c a8 a0 bc 04 c1 03 3d d9 d8 b8 bc
       0.054229476 -0.01961147 0.032166496 -0.022564339
0002c0 25 4a 8e 3d 4e 68 ac bd 65 0a bb 3b a6 af 79 bd
       0.06947736 -0.08418332 0.0057080262 -0.060958527
0002d0 54 58 9b bd 14 d1 90 3c d2 d2 2a bd c4 c2 98 bd
       -0.07585207 0.017677821 -0.04170496 -0.074590236
0002e0 e0 b2 82 3c 24 76 51 3d c1 a4 68 bd 26 e9 d6 bc
       0.015954435 0.05113806 -0.056797747 -0.02623422
0002f0 5a f3 ab bd 0f 8e 59 bd 3f f1 a2 3d 3b b0 12 bd
       -0.08396025 -0.053113993 0.0795617 -0.035812598
000300 f9 2e ae bc e9 54 1f 3c d9 5e 3a bd 72 2e 80 bd
       -0.021262633 0.009724834 -0.04550061 -0.06258859
000310 48 13 af 3d dd 8e a5 bd 92 74 7f 3c 70 7f 88 bd
       0.085485995 -0.0808389 0.015591757 -0.06664932
000320 f5 ff b9 3d 7b 99 8a 3d 83 2a 18 bd 94 c4 27 3d
       0.09082023 0.06767555 -0.037149917 0.040958956
000330 56 b2 1f 3d 8b 01 ad 3d 79 18 aa 3c 92 61 8b bd
       0.038988434 0.0844756 0.020763623 -0.068057194
000340 0c 95 39 3a d8 e4 0e bd a2 18 e9 bc 4f 26 5e bd
       0.00070793997 -0.03488621 -0.028454129 -0.054235753
000350 08 b9 5f bd 71 44 31 bd a0 1c 76 bd 24 d4 41 bd
       -0.05461982 -0.04327816 -0.060085893 -0.047321454
000360 a4 f2 86 3d 96 b9 5a 3d 74 7c fd 3c fe 45 e4 3c
       0.06589249 0.053399645 0.030943133 0.027865406
000370 c1 ff cd ba 75 3c 85 3d f2 f1 4d 3d 9a 6b af 3c
       -0.0015716479 0.06505672 0.050279565 0.021413613
000380 10 5e 19 bd 70 55 07 3d f4 b3 7b bd 21 ca 95 3d
       -0.03744322 0.033040464 -0.061450914 0.07313944
000390 e7 df 84 3d 6e 68 0f 3d 68 67 ac 3d 3e 28 96 3d
       0.064880185 0.0350117 0.08418161 0.07331894
0003a0 66 8c 55 3c 8c 25 b3 bd b3 01 53 bd 82 5f 73 bd
       0.013033962 -0.08747396 -0.051515292 -0.059417255
0003b0 58 2b 9e bd d7 d5 27 bd b0 4e ad 3c 5a 5c 8f bb
       -0.07723111 -0.040975418 0.021155685 -0.004375023
0003c0 84 b5 37 3a 0a 7a 73 3d 2f 3d 98 bd 8b aa b3 3d
       0.0007007944 0.059442557 -0.07433545 0.08772763
0003d0 ea f9 84 3b 7a 7e 9a bd 32 1e 29 3d 90 36 02 3c
       0.0040581124 -0.07543655 0.041288562 0.007947579
0003e0 ae 41 15 bd de 50 8c bd 09 b0 b4 3d df 00 01 bd
       -0.03643959 -0.06851362 0.088226385 -0.03149497
0003f0 a5 ee d1 3c df 74 1d 3d 56 48 a2 3d bb c9 80 bd
       0.02562649 0.038441535 0.07923953 -0.06288477

bias f4 [4]
000000 e9 66 52 3d 28 23 9f bd 76 aa 94 3d 08 8e 5a 3a
       0.051367674 -0.077703774 0.07259075 0.00083372043
