pretrained_model/simplified/current_model_175000.pt (torch_old, 483117 bytes, 10 tensors)

conv1.weight f4 [32, 4, 8]
000000 37 37 73 be 5b 6c e6 bd 36 f8 c4 3c 3a 92 7e bd
       -0.23751532 -0.11251136 0.024044137 -0.06215117
000010 7a 97 8e bd 92 1b 6b 3e 9b b8 80 3c 17 05 99 bd
       -0.069624856 0.22959736 0.015713027 -0.07471674
000020 73 3f 15 be 74 41 42 be 72 69 a7 3c d8 86 07 3d
       -0.14574985 -0.18970281 0.020436022 0.03308758
000030 59 2e fc 3d 37 09 2e 3e f4 10 b4 3d 7d 5a 5b 3d
       0.123135276 0.16995703 0.08792296 0.053553093
000040 bd be 84 bd 20 fb 47 be 4b 63 c9 3d ad ba 0f be
       -0.06481693 -0.1952939 0.09833392 -0.14036055
000050 a7 a2 5f 3e 93 9d dd 3d 87 0f 47 3e ca 67 ac 3d
       0.2183939 0.108210705 0.19439517 0.08418234
000060 84 7b 5f bd c0 c4 0e be ec ca 18 3d 61 83 d8 bd
       -0.054561153 -0.13942242 0.037302896 -0.105719335
000070 20 f7 79 bd 02 ff 2f bc 4b 1a 20 3e a2 b5 52 bd
       -0.061026692 -0.010741951 0.1563503 -0.05144275
000080 51 e5 fe bd 05 1c 44 3e 98 35 90 bc 91 b5 37 bd
       -0.124460824 0.19151314 -0.01760368 -0.04485089
000090 f3 87 1b be 02 e5 31 3e a8 57 1b 3e f7 71 1e be
       -0.1518858 0.17372516 0.15170157 -0.15473162
0000a0 85 ff 3f 3e 7b e0 7c 3e 5e ec 2f 3e 9e f5 d8 3d
       0.18749817 0.24695008 0.1718001 0.10593723
0000b0 4c 72 86 3d 30 7c 2a 3d ce de ff 3d 53 ef 08 be
       0.06564769 0.04162234 0.124936685 -0.13372545
0000c0 b0 3a 5f bd 84 cc 09 3c 1a 71 32 3e bd d6 77 3d
       -0.054499328 0.008410577 0.17425957 0.060507525
0000d0 62 45 d8 bd a4 c4 94 bd 3c 56 24 bb 31 12 d9 ba
       -0.10560109 -0.07264069 -0.0025075814 -0.0016561208
0000e0 f2 8c 39 bc 40 15 41 3e 3f ae 33 3e 32 dc 3c bd
       -0.011325108 0.18855762 0.17546938 -0.046108432
0000f0 c5 13 b7 bd dc cf 0f 3d 5e e3 26 3e 29 e1 53 be
       -0.089393176 0.03511034 0.16297671 -0.2069136
000100 42 ce fe 3d 2d 47 5e 3c e4 6d 96 3d 51 91 ac 3c
       0.12441684 0.013566774 0.07345179 0.021065386
000110 45 4c a0 3d 6d b7 3e be 06 03 47 be 4c 20 18 3d
       0.07827047 -0.18624659 -0.19434747 0.037140176
000120 77 02 40 bd e8 ca da 3d 34 51 b9 bd 44 57 85 bd
       -0.04687735 0.106832325 -0.090486914 -0.06510785
000130 57 66 79 be 91 86 7e 3d 66 29 62 be b2 fe 80 bd
       -0.24355446 0.06214005 -0.22086105 -0.06298579
000140 55 2a 48 3e 8a 31 2b 3e ea 59 e7 3d f5 ad 87 3c
       0.19547398 0.16718116 0.112964466 0.016562441
000150 fb 02 51 3d ed 44 38 bd 50 a3 87 bd 11 00 91 bd
       0.051028233 -0.044987608 -0.06622946 -0.07080091
000160 15 e3 86 bc b4 f2 69 3e c0 90 37 bc 40 fe 4f bc
       -0.016465703 0.2284649 -0.011203945 -0.012694895
000170 15 82 50 bd 40 d0 13 be 43 d7 8c be 8a 51 09 3d
       -0.050905306 -0.1443491 -0.27507982 0.033525027
000180 d9 59 48 3e c6 39 5b 3d 6f 57 db bc 44 41 c2 bd
       0.19565524 0.053521894 -0.02677509 -0.09485105
000190 64 4e d5 bd 11 59 83 3e 9f ff 4c 3e 51 6d 4c bc
       -0.104153425 0.2565389 0.20019387 -0.012477235
0001a0 a8 58 15 be fc e1 a9 bd e8 dd b2 bd ab 22 3b be
       -0.14584601 -0.08295056 -0.087337315 -0.18274944
0001b0 de e4 6d bd a7 0e d8 3c 12 61 0b 3e 56 1d a7 bd
       -0.058079593 0.026374174 0.13611248 -0.08159892
0001c0 f5 4d cb bd dd d9 38 bd 02 ad 10 be 4d 87 58 be
       -0.099269785 -0.045129646 -0.14128497 -0.21145363
0001d0 84 fe 37 be 3f c6 8d 3e 00 07 23 3e 45 fe a5 3c
       -0.17968184 0.27690312 0.15920639 0.020262847
0001e0 dc 25 71 3d 23 d6 e2 3d f6 96 c1 3d 6f b6 4e be
       0.058873996 0.110759996 0.09452622 -0.2018678
0001f0 da 41 c7 3d 9f 0b ff 3d a7 cf d3 bd 5f fa 3c 3d
       0.09729357 0.124533884 -0.10342341 0.04613721
000200 99 3c 15 bd a4 2a ba 3d b2 df c3 3b 1f 4e f2 3d
       -0.036434744 0.09090164 0.0059775943 0.11831307
000210 8d 3e bc bd bd 85 dd 3d a0 6a 7b be db 72 b5 ba
       -0.09191618 0.10816524 -0.24552393 -0.0013843434
000220 7c 08 b8 3d 54 9b 85 3e d1 d3 25 3e 12 81 bf bd
       0.08985993 0.26095068 0.16194083 -0.0935079
000230 49 22 97 3d 17 0d 61 3d 14 2a a3 bd 18 78 3a bd
       0.07379586 0.054944124 -0.0796701 -0.045524687
000240 49 79 61 3e 71 e9 55 3d db bf 08 3d b9 bd 34 3e
       0.22018923 0.05222458 0.033386093 0.17650498
000250 7b c8 01 3e 41 ee 03 bd a4 41 c1 3d 84 69 db 3c
       0.12674133 -0.03220964 0.09436348 0.026783712
000260 f3 b0 84 3e 7b e1 7f 3e 8d 94 f4 3d 35 cd 7a 3d
       0.25916252 0.24988358 0.11942396 0.061230857
000270 a0 40 d1 3c 00 c9 ca 3d 71 ce b1 3d 9c 0b 22 be
       0.02554351 0.09901619 0.08681954 -0.15824741
000280 c6 0c 30 3e 87 02 c1 3d 3a 3c 99 3d a5 ef c7 bb
       0.17192373 0.0942431 0.074821904 -0.006101566
000290 f6 d4 27 3e e2 a8 ac bd 50 1e 1e 3e 34 3f 93 bd
       0.16389832 -0.08430649 0.15441251 -0.071897894
0002a0 08 af 3a bd 2d 5f d3 bc 3e 36 5b 3e a2 14 94 bc
       -0.04557708 -0.02580222 0.2140741 -0.018076245
0002b0 6b 76 03 3e c0 1b 03 3e f2 ce 14 3e 4c 46 a2 bc
       0.12838142 0.12803555 0.14532068 -0.01980891
0002c0 28 0d 59 3e 1c 24 54 3e d6 d8 d5 bd 9f 5e f9 3d
       0.21196425 0.207169 -0.10441749 0.12176251
0002d0 59 d4 0f be 30 dd 1e be 1f 47 b0 3d 3b 64 09 3e
       -0.14045848 -0.15514064 0.08607315 0.13417141
0002e0 b3 b1 b7 3d 7e 7b c6 bd ad eb ae 3b 75 70 2a 3e
       0.0896944 -0.09691523 0.0053381533 0.16644461
0002f0 47 50 06 be 93 97 dd bd 6b 6f 4a be 3b 6b 5d 3d
       -0.13116561 -0.10819926 -0.19769065 0.05405734
000300 7a c9 0e be 2f 8b 9c 3e 72 45 07 be b3 31 0d be
       -0.13944045 0.3057494 -0.13210085 -0.1378849
000310 3f fb b2 3d e4 01 5c 3d 69 dc ea bd 17 a9 28 3d
       0.08739328 0.05371274 -0.11467821 0.04117688
000320 a7 94 39 be c7 95 4d 3e 1a f3 f1 3d 55 57 49 be
       -0.18123113 0.20076667 0.11813946 -0.19662221
000330 07 90 1a bc ff 76 19 3e c2 00 94 be dd d8 a9 bd
       -0.009433753 0.149868 -0.28906828 -0.082933165
000340 a6 2b 39 3d c2 6f 7e 3e f9 7e 4a be 97 c7 0b be
       0.045207642 0.2484732 -0.19774999 -0.13650356
000350 bf 2c 65 3e 76 2c 28 3d ba c0 43 be cf 63 44 3e
       0.2238035 0.041058026 -0.19116488 0.19178699
000360 ed 61 1e be 0f d4 36 3e 7a b3 3c be 6d 8b 3a bd
       -0.15467043 0.17854331 -0.1842784 -0.045543123
000370 2a 59 4e 3e 88 f6 14 3e 9d bd 50 be b5 23 c2 3d
       0.20151201 0.14547169 -0.20384832 0.09479467
000380 2a 0d 6b 3e 9f 45 da 3d 0b 6f 03 be bb 9f c2 be
       0.2295424 0.106578104 -0.12835328 -0.3801249
000390 f0 9f 18 be fc 70 2e 3d fd 36 1e 3e 2e de 2d bd
       -0.14904761 0.04258822 0.15450664 -0.042448215
0003a0 22 78 01 3e 7f 49 0b 3e 44 a0 c2 bc c3 61 95 bd
       0.12643483 0.13602255 -0.023758061 -0.07294037
0003b0 92 33 35 be 64 0f 6d 3d d9 2d b4 bd 88 86 7f bd
       -0.17695454 0.057876006 -0.08797807 -0.06238416
0003c0 c6 03 81 3c 56 dc 2e 3e 88 08 82 3d 07 8b ca be
       0.01574887 0.17076239 0.063492835 -0.39559194
0003d0 27 af 49 be ba 73 26 3e 45 76 40 3e c3 4c da 3d
       -0.19695722 0.16255084 0.18795116 0.106591724
0003e0 70 7c 63 3e 59 44 1c 3d 9b da 0d be 57 37 b4 be
       0.22215438 0.03815112 -0.13852923 -0.3519847
0003f0 ba 81 d0 3d 12 55 7b 3e 64 eb 7c 3d cf d9 14 bc
       0.101809934 0.2454417 0.061747923 -0.009085133

conv1.bias f4 [32]
000000 be 9d 14 bc 63 86 41 bc e7 ae e8 3d ad d5 93 ba
       -0.009070812 -0.011811825 0.11361485 -0.001127889
000010 59 05 3c bd 99 51 bb bd 78 44 4b bc 7d 94 57 3c
       -0.045903537 -0.09146423 -0.012406461 0.013157961
000020 96 96 0d 3e a7 68 0a 3d b8 d4 bb 3d 85 f7 a6 3d
       0.13826975 0.03379121 0.09171432 0.08152679
000030 f3 9f 61 bc 2d 20 94 ba 4e 85 28 ba db 3a 10 bd
       -0.013771045 -0.0011301093 -0.00064285554 -0.03521238
000040 ab 59 1d 3d 46 5a 43 3e 7a 3a d0 3c cc 93 13 ba
       0.038415592 0.19077405 0.025418509 -0.00056296284
000050 e7 c0 43 bd c1 25 44 bb 30 42 dd 3d 8d 3d f1 3b
       -0.047791388 -0.002992973 0.1080364 0.0073620738
000060 e0 9b 0b 3c ec 68 bd 3d 49 45 26 3d 68 bf 96 3c
       0.00852105 0.09248528 0.04059342 0.018401816
000070 65 f7 92 bc 77 75 92 3c 22 74 59 3d 7d 93 f1 3b
       -0.017940233 0.017878277 0.05308927 0.0073723183

conv2.weight f4 [64, 32, 4]
000000 66 9c 42 be 41 82 ae 3d 7f 69 ba 3d 8c 1e 9c 3d
       -0.19004974 0.08520938 0.09102153 0.07623014
000010 44 ab dc be 2d e6 23 be 9e 0e 72 3d d8 c5 8b bd
       -0.43099415 -0.16005774 0.05909597 -0.06824845
000020 d0 01 ac bc 4f 62 a9 3d 69 71 f6 3b 21 40 02 3e
       -0.020996958 0.08270704 0.0075208438 0.12719776
000030 71 5b a0 3c 3e 5b 8a 3c 91 69 31 bd 8c 29 4e 3d
       0.019574853 0.01688921 -0.043313567 0.05033259
000040 4a 50 be be 77 d6 79 bc 0d 33 8b bc a0 47 64 bb
       -0.3717063 -0.015248886 -0.016992116 -0.003483273
000050 30 24 52 be f4 3d f6 bd 16 90 a2 bc 2b a9 2d bd
       -0.20521617 -0.12023535 -0.019844096 -0.04239766
000060 89 c9 c1 be 83 de 48 be 24 ec a5 bc f8 38 9c bd
       -0.37849072 -0.19616131 -0.020254202 -0.076280534
000070 48 a8 17 be e8 36 b7 3c 25 18 e9 3d 12 a7 d6 3b
       -0.14810288 0.022365049 0.11381558 0.006550678
000080 e7 22 d2 3d 62 6f 5b bd 28 d4 d3 3d 7c a8 db 3d
       0.10260563 -0.05357302 0.103432 0.10725495
000090 94 06 67 bd fd 93 0f 3e 98 dd ad 3c 78 40 1e 3e
       -0.056402758 0.14021297 0.021223828 0.1545428
0000a0 3b b1 8c 3d 2e 93 e0 3c c5 ac 07 bd 2f ba 94 3c
       0.068697415 0.02741393 -0.03312375 0.018155186
0000b0 d9 c3 04 3c 02 24 a2 bd cd 55 6b 3b 48 11 00 3e
       0.008103334 -0.07917024 0.0035909296 0.12506592
0000c0 31 a8 56 be 8f 87 98 3c 6f 1c 09 3e 6a d3 2c bd
       -0.20962597 0.018619327 0.13389753 -0.042193808
0000d0 29 97 2c bd a6 85 9c 3d 87 ef e4 3c 88 f1 1e 3c
       -0.042136345 0.07642679 0.027946247 0.00970114
0000e0 da 72 cf be a0 ad bb be 2c 79 c0 3d 58 56 07 3e
       -0.40517312 -0.36655903 0.09398112 0.13216531
0000f0 14 c4 12 be ae 55 e3 3d a4 d2 e8 bc 50 45 b5 bd
       -0.1433261 0.111003265 -0.028420754 -0.08851111
000100 a4 f6 19 bd 9d f6 45 3b 2f ea f8 3d 5f 2d ae 3d
       -0.03758873 0.0030206807 0.12154042 0.085047476
000110 dd 3e ed 3d 1e 12 1b 3b 1b 09 c4 3d 26 21 0c 3e
       0.11584256 0.0023661922 0.09572049 0.1368452
000120 f9 5b d9 3a 4c 21 14 3d e1 12 6e 3c cd 93 b3 3d
       0.0016583196 0.036164567 0.014530868 0.08768425
000130 f3 e6 40 be e4 af b1 bd e9 87 70 bd e7 95 87 bd
       -0.188381 -0.086761266 -0.058723364 -0.066203885
000140 d9 5d ce be e8 22 b9 be 13 b5 9e 3d 2a 16 6d bb
       -0.40305975 -0.36159444 0.07749381 -0.003617654
000150 8d 21 2e be 4d bf d1 be c4 37 54 3d 83 a6 80 3d
       -0.17004986 -0.40966263 0.051810995 0.062817596
000160 d1 b6 37 3d 30 0f f9 bc ee bb 7c bc 96 01 06 3d
       0.04485208 -0.03040275 -0.015425665 0.032716356
000170 09 a9 aa be 3d 54 7b bd 8a 2c 23 3e a4 c3 0c 3e
       -0.3333209 -0.061359633 0.15934959 0.13746506
000180 1e 16 df bd 2e 5d 7f bc 14 77 23 3d 61 e2 e5 3d
       -0.108928904 -0.015586181 0.039908484 0.11224819
000190 e0 c6 db 3d a9 bf c9 3c c6 e7 2b bd 28 e1 0f 3e
       0.10731292 0.024627523 -0.041969083 0.14050734
0001a0 57 2a d3 bd 1a 1d 50 3d 81 24 3c 3d 9d 12 56 3d
       -0.1031081 0.050809003 0.04593325 0.052263845
0001b0 1f 6b c2 3c b9 ce 92 3b 10 06 53 3d e5 7a b3 3c
       0.02373272 0.0044802097 0.051519454 0.021909187
0001c0 18 9c a0 be f7 87 81 be fa 68 84 bb ed e9 62 3d
       -0.3136909 -0.25299045 -0.0040408345 0.05539887
0001d0 32 83 41 be 5d 2b 37 be c5 c8 77 be da eb 86 bd
       -0.18897703 -0.17887636 -0.24197681 -0.06587954
0001e0 17 34 7c bd 42 30 03 bc 85 7b 4c bd 1b df f0 3d
       -0.061573114 -0.008007111 -0.049922485 0.11761304
0001f0 25 47 19 be 9e ce 0f be 1f 99 c0 3d 8c de 38 3e
       -0.14968546 -0.14043662 0.094042055 0.18053645
000200 62 b7 a0 39 a1 71 06 bd 89 4b 6d 3d 68 a8 b1 3d
       0.0003065421 -0.03282321 0.057933364 0.08674699
000210 a3 04 23 3d 5f bf df bd 2c a3 15 bd e3 d2 8b 3c
       0.039799344 -0.10925173 -0.036532566 0.017068332
000220 ff 9f 62 3b f7 02 38 bd d9 2a ac bd 16 6d 8e bd
       0.0034580228 -0.044924702 -0.0840661 -0.069544
000230 69 40 00 3e 7f 4c 7c 3d 32 1c c6 3d 4a 17 c5 3d
       0.1252457 0.06159639 0.096733466 0.09623583
000240 6f 44 46 3c 56 eb 35 be d5 53 c0 bd c3 d2 14 bd
       0.012101277 -0.17765555 -0.0939099 -0.03633381
000250 cb 04 1e be 04 ed 3b bc 0d a2 00 be d2 e5 f3 bc
       -0.15431516 -0.011470083 -0.12561817 -0.029772673
000260 32 e3 e6 3e 47 7d 16 3e 82 5f cc bc 53 11 04 3d
       0.4509521 0.14696227 -0.024947885 0.032243084
000270 0f f9 7e 3e 57 a1 64 3e 4d 4b b0 3d fc 34 20 bd
       0.24899696 0.22327171 0.086081125 -0.03911303
000280 f1 13 50 3e bd d4 0e 3d ac 7f e5 3d 51 2e b8 3d
       0.20320107 0.03487085 0.11205992 0.08993209
000290 c3 e1 84 3d 29 49 9a 3d 32 77 3c 3a a7 84 a6 3d
       0.06488373 0.075334854 0.00071893923 0.0813077
0002a0 4f 2f cf 3d 9b f6 cd 3c f9 f2 a2 bd 0d 38 e2 bd
       0.10116445 0.025142005 -0.079564996 -0.11045847
0002b0 5d 74 94 3d 5b a6 90 bc 0b 75 2d bd b9 50 81 3c
       0.07248757 -0.01765745 -0.04234795 0.015785562
0002c0 70 be f1 bc 3f 93 af 3c 83 51 b7 3d 4b 7a 8b 3d
       -0.029509753 0.021432517 0.08951094 0.06810435
0002d0 cf 74 d7 3d de cd 30 3e 21 d6 81 3d 4f 77 fe 3d
       0.10520326 0.17266032 0.0633967 0.124251
0002e0 71 d4 35 3d df 51 7c 3d 4e 27 85 3d 99 12 a1 3d
       0.044392053 0.061601516 0.065016374 0.07864875
0002f0 0c 98 0c 3e ac a1 9c 3d b4 a9 0e bd 3a 1f 62 3d
       0.13729876 0.07648024 -0.03482981 0.05520556
000300 b8 3a 7d 3e a4 48 49 3e 2c 3a a5 bc ac 7d 06 3d
       0.2472943 0.19656616 -0.02016934 0.032834694
000310 2c 93 01 3d fc 36 9d 3d d5 64 ad 3d 11 2f 54 bd
       0.031634495 0.07676503 0.08466498 -0.0518027
000320 83 85 bf 3e 53 76 cb 3d e1 bb 2d 3e 1e a2 9f bc
       0.3740655 0.09934678 0.16966201 -0.019486483
000330 9c c8 9b 3e 96 c6 d5 3d 21 6e 74 3c 03 b4 3b 3d
       0.3042649 0.10438268 0.014918835 0.04582597
000340 90 90 b4 3d 6d c5 79 3d c9 50 b8 3c 33 cd 8f bc
       0.088166356 0.060979296 0.022499459 -0.017553901
000350 ff f3 3d 3d 11 65 b2 bd 87 1d 8a bd c1 75 1d bc
       0.04637527 -0.08710683 -0.06743913 -0.009610594
000360 d3 c0 f8 3d a4 2c 96 3d 44 aa e3 3d 55 b4 e8 3b
       0.12146153 0.07332733 0.1111646 0.0071015754
000370 cf de e8 3d 49 33 ce bb 03 3f 87 be 84 76 ec 3d
       0.11370622 -0.0062927348 -0.26415262 0.115460426
000380 c5 ae 8c bd d1 46 38 bd d3 01 0c be 7f b2 48 3d
       -0.06869272 -0.04498941 -0.13672571 0.048998352
000390 cf 3a 00 3e b4 02 4b 3d d8 8b 32 bd bb f8 c8 3d
       0.12522434 0.049563125 -0.043590397 0.098130666
0003a0 65 04 1d bd 16 6c 1b bd d9 94 b7 bd 7f 61 66 bd
       -0.03833427 -0.037944876 -0.08963937 -0.056245323
0003b0 0f 6a 7f 3e 94 fb 22 3e 65 03 af 3d 34 51 06 bd
       0.24942802 0.15916282 0.08545569 -0.032792285
0003c0 2d b5 b1 3c b6 f2 ea bd a7 ad fd bb 3a ac 03 3d
       0.021692837 -0.11472075 -0.0077416482 0.03214667
0003d0 61 a6 49 3e 95 9a d9 3d 84 23 4c bc a4 74 b8 3d
       0.19692375 0.10625187 -0.012459639 0.090066224
0003e0 ee 1a 4a 3e 41 59 2c 3e 75 d6 c0 3d ac 44 8a 3d
       0.19736835 0.16830923 0.094159044 0.06751379
0003f0 2b c5 2b 3e 9e 87 ed 3d 35 a9 32 3d d4 20 93 3d
       0.16774432 0.115981326 0.0436184 0.07183996

conv2.bias f4 [64]
000000 ed 97 28 3d 1f 96 21 bd fb 0a 9a bd 63 cc f7 3d
       0.041160513 -0.039449807 -0.075216256 0.120995305
000010 65 70 cd 3c e2 30 6e 3d cf d0 dc 3c 38 ff ce bb
       0.025078008 0.058152087 0.026955036 -0.0063170455
000020 e9 7b cd 3d 69 18 9b bd f3 6a 9f 3d 13 e6 ef bc
       0.100333996 -0.07573015 0.07784071 -0.029284513
000030 09 4f 0d 3e f2 de 75 3c c7 81 8a 3d 4a 4a 16 3d
       0.13799681 0.015006768 0.06763034 0.03669194
000040 0a f4 85 bc 39 61 39 3d 17 28 80 3c 72 80 3e 3d
       -0.016351718 0.045258734 0.015644116 0.046509214
000050 9e af 25 bd cf 19 df 3d 91 98 d4 bc 75 00 1c bd
       -0.040450685 0.108935945 -0.025951656 -0.038086373
000060 2c e8 e9 bc b0 96 85 bd 69 69 22 3e a9 f5 2c 3e
       -0.028553091 -0.06522882 0.15860523 0.16890587
000070 24 97 b3 3d 4c 86 81 bd 20 c8 c9 3d b9 59 6c 3d
       0.08769062 -0.06324443 0.09852624 0.057702754
000080 62 56 1f 3d 40 91 cf 3d 86 1f aa bd 95 dd c2 3d
       0.03890074 0.10135126 -0.08306794 0.0951492
000090 ae 31 3b bd 17 52 1b 3d c2 35 c4 3c be cb ad bb
       -0.045701675 0.037920084 0.023951415 -0.005303829
0000a0 f8 43 6e 3d dc 26 6f 3b 71 c3 1d 3d d8 57 1b 3d
       0.05817029 0.0036491668 0.038516466 0.03792557
0000b0 b1 cf bd 3d 9a db b7 3d e8 35 66 bd 07 38 89 3d
       0.092681296 0.089774325 -0.056203753 0.067001395
0000c0 28 f4 95 3b af 39 d5 3c 02 28 84 bd 04 da 2e 3d
       0.004576225 0.026028482 -0.064529434 0.042688385
0000d0 aa 02 5b bc 1e e1 8f 3d 0a 8f bf 3d c5 03 9d bb
       -0.013367334 0.070253596 0.093534544 -0.004791709
0000e0 eb 6a 04 3e c8 68 18 bd 62 8d 65 3d ce 5a 15 bc
       0.12931411 -0.037209302 0.056043036 -0.009115888
0000f0 e9 d7 77 3d ee b1 f8 3c 94 8d 97 3d 8d ee 6b 3d
       0.060508642 0.030358281 0.07400051 0.057600547

conv3.weight f4 [64, 64, 3]
000000 ad 36 5d bd f6 ae 98 3d 83 cf 9c bc 38 9c 86 bc
       -0.05400722 0.07455246 -0.019141918 -0.016431913
000010 d9 b0 36 be c0 c3 04 be 54 56 3e be 34 3d ea 3d
       -0.178409 -0.12965298 -0.18587619 0.11437455
000020 16 8d 6b bd 83 15 b0 3d 3c 6f 08 3d 57 5f dd bd
       -0.057507597 0.08597853 0.033309206 -0.108092
000030 15 d3 b3 3d 8f 01 9a bd 0b b3 5a 3d 95 f6 ac 3d
       0.08780495 -0.075198285 0.053393405 0.08445469
000040 41 52 8b bd 22 0d ab bd 00 73 04 3c 96 73 19 bd
       -0.06802798 -0.08352114 0.008084059 -0.037463747
000050 e5 00 a5 bd 2d 8f 83 bd 86 ba 08 3d 74 b7 7d 3d
       -0.08056811 -0.06423793 0.033381008 0.061942533
000060 10 86 26 be 2c 60 00 be 3c 69 79 bd 7f 7f 4d 3c
       -0.16262078 -0.12536687 -0.060891375 0.0125426045
000070 0e a9 8d bd 71 e4 ac bc 2f e2 46 3e 6b 3c 13 be
       -0.0691701 -0.021105023 0.1942222 -0.14378516
000080 78 11 93 3d 02 f0 11 be e4 e2 03 3d cd f1 c6 bd
       0.07181066 -0.14251712 0.0321988 -0.097140886
000090 db fb 34 3e a4 50 f0 3c 0f 57 ef bd 12 b9 50 bd
       0.176742 0.029335327 -0.11686527 -0.050957747
0000a0 db a8 80 bd 78 0b c0 3d 43 91 e4 bc 60 1d 81 3d
       -0.062822066 0.093771875 -0.027901297 0.06304431
0000b0 89 c9 10 be 57 8c 5e 3c 48 c2 f8 bc 3e 35 b7 bd
       -0.1413938 0.013583264 -0.030366078 -0.08945702
0000c0 3e 53 4a 3e 9a 5f 18 be 66 d9 65 3d 71 ea f7 3c
       0.19758317 -0.14880219 0.05611553 0.030263158
0000d0 50 34 3f bd 87 04 66 bd b0 ab 5f 3d 64 15 55 bd
       -0.04668075 -0.05615666 0.054607093 -0.052022353
0000e0 a7 9d 33 bd b0 a1 89 3b bf 45 00 bd 54 66 69 ba
       -0.04385152 0.004200183 -0.031316515 -0.00089034927
0000f0 7e c8 bb 3d 68 a8 9d bc a5 27 e8 bd 8a 7b a4 3d
       0.091691 -0.019245341 -0.113356866 0.08031376
000100 e4 29 91 bc f7 6b 95 3d ac 10 0d 3e ac 81 f6 bd
       -0.01772017 0.07295983 0.13775891 -0.12036452
000110 95 c2 2b 3c 95 fa 5c bd 4a 00 4c 3c 0d be 03 bd
       0.010483404 -0.05394991 0.012451241 -0.03216367
000120 49 da f8 bd 81 f3 42 3d 5d 4f cc 3d 70 eb a6 3d
       -0.121510096 0.047595505 0.09976075 0.08150375
000130 bb ed 44 bd 31 43 84 3c f5 a7 e1 bc 9e 54 ba bd
       -0.04807828 0.01614532 -0.027545908 -0.09098171
000140 ff b4 a4 3d 69 22 40 3e 22 df 72 3d 98 d3 ba bd
       0.08042335 0.18763126 0.059294827 -0.091223896
000150 50 9e 8d bd ae 58 8c 3d 30 61 81 bd a1 dd bb bd
       -0.06914961 0.06852852 -0.06317365 -0.09173132
000160 4f 91 49 bd f2 15 35 3d f3 a0 8f 3d f2 72 ce bb
       -0.049210843 0.04421038 0.070131205 -0.0063003236
000170 13 7d 84 3c 98 a5 d5 3d 80 10 9c 3d bb e0 b9 3c
       0.016172921 0.10431975 0.076203346 0.022690168
000180 eb 68 d9 3c f7 0a ef bd 42 9a e0 bd 37 87 60 bc
       0.026539287 -0.11672013 -0.10966922 -0.013704113
000190 72 56 f6 bd f3 ab 55 ba 98 6e 30 bd 61 61 d9 bc
       -0.12028207 -0.00081509276 -0.04307422 -0.026535692
0001a0 e8 05 d8 3d e1 a8 36 be ee 3d 0b bd 60 de d9 bc
       0.105480015 -0.1783786 -0.033994608 -0.026595294
0001b0 ee e5 85 3d ad 56 73 3e a3 cf ed bc 4d 98 4b be
       0.06537996 0.23763533 -0.029029673 -0.19882317
0001c0 40 9d e5 3c 05 73 df bd c6 0f b0 3d d6 b7 29 be
       0.028029084 -0.1091061 0.085967585 -0.16574034
0001d0 7d 75 a0 bd 36 25 c8 bd e5 3b 09 3d 93 f2 94 bd
       -0.07834909 -0.097727224 0.033504386 -0.0727283
0001e0 e5 9d e7 bc 93 74 1f 3d 24 a5 ae bd c2 62 8e bc
       -0.028273532 0.038929533 -0.08527592 -0.017381076
0001f0 a3 6c d2 3d 95 82 ff bd ce f2 32 bd d2 a2 a3 3c
       0.10274627 -0.124760784 -0.043688588 0.0199751
000200 02 ed 8d 3d e8 cb 23 3d df cf aa bb 83 78 9b 3c
       0.06929971 0.039989382 -0.0052127684 0.018978363
000210 89 29 8b 3d 8e c8 73 bc 77 6e 14 bd f7 67 f9 bc
       0.067950316 -0.014879359 -0.03623816 -0.030445082
000220 9a 90 1d bc af 80 36 bd ff 92 e4 3d 5c 23 e9 bd
       -0.009616995 -0.044556316 0.1116085 -0.113836974
000230 01 15 a4 bc d0 58 a8 bd c9 df a0 bc 4d 4e 8c 3d
       -0.020029547 -0.08220065 -0.01963796 0.06850872
000240 b0 49 9d 3d ef c1 a7 bd 6f 46 c6 3c a9 27 5d 3d
       0.076800704 -0.08191287 0.024203507 0.0539929
000250 14 a6 35 3c cb b5 c9 3d 88 98 2a 3d de 59 cc bc
       0.011086959 0.098491274 0.04164937 -0.024945196
000260 c0 3f 61 3c 15 78 d9 ba 17 07 11 3d 26 48 68 bd
       0.013748109 -0.0016591573 0.035407152 -0.05670943
000270 9b 24 43 bd d1 bd b0 bc d2 c8 f7 3a a6 b2 9b bc
       -0.04764233 -0.021574887 0.0018904454 -0.019006085
000280 4f a2 a5 bd fc 35 7e bc 03 f3 e0 bd 45 b5 91 bd
       -0.080875985 -0.015515801 -0.10983851 -0.071146525
000290 75 af 93 bc 4d 0c d6 bd 9e 7a 90 3d 30 14 ac bd
       -0.018028 -0.10451565 0.07054637 -0.08402288
0002a0 1b 16 0a 3e da ff f4 3c 98 86 40 be 3b bb af bd
       0.13484995 0.029907156 -0.18801343 -0.08580633
0002b0 e5 ba 80 3c 06 4e 50 3c 09 3a 08 be eb 59 1f 3d
       0.015714118 0.012713915 -0.13303389 0.03890411
0002c0 bd 3c ac 3d b6 8b ba 3c b5 e7 f8 bd 3f 5e 4b bd
       0.084100224 0.022771697 -0.121535696 -0.049650427
0002d0 e0 57 b3 3d a1 0c aa 3d fe be 42 3d c8 c2 12 3e
       0.08756995 0.0830319 0.047545426 0.14332116
0002e0 c4 df 8c 3b c3 36 c1 3c 31 b2 62 3e 85 c8 84 3d
       0.004299136 0.023585683 0.22138287 0.064835586
0002f0 e6 ea 9a bd d0 b8 1c 3e 78 80 32 bd 48 ca b7 3d
       -0.075643346 0.15304875 -0.04357955 0.08974129
000300 27 d4 2e 3d 4f 9b 0f 3e a4 9c 29 3b 88 8f e5 bc
       0.042682793 0.1402409 0.0025880719 -0.028022543
000310 85 16 46 3d 99 52 57 ba 2f 96 e1 3d e4 8c b0 bc
       0.04836132 -0.0008213907 0.11014973 -0.021551557
000320 df 5c 41 3c 58 8e fd 3d 5e 7f a2 3d b7 2e 9b 3d
       0.011801927 0.123806655 0.079344496 0.075772695
000330 d0 4c e3 3c 7e 69 6c 3c 71 4b 6b 3d aa 6f fd 3d
       0.027746588 0.014429448 0.057444993 0.12374814
000340 4a aa cf 3c 9c 90 bb bb b9 4f 76 bc 45 ff 2b bd
       0.025349755 -0.005724026 -0.015033656 -0.04199149
000350 5a e2 5e 3d 72 cb 04 bd 82 70 ba bc 9c ce 83 bc
       0.054415084 -0.032420583 -0.022758726 -0.01608973
000360 c8 83 dc 3d 33 d6 63 3d 9f db 39 3d 0a ce 62 bd
       0.10767323 0.0556242 0.045375463 -0.055372275
000370 eb 1d 80 bd ad ae 79 bd c3 c7 c3 3c 7d a7 cd bb
       -0.062557064 -0.0609576 0.023898965 -0.0062760697
000380 b7 d2 48 bd cb b1 b2 3d 16 8d 1f 3d ce 14 0d be
       -0.04902908 0.087253176 0.03895291 -0.13777468
000390 4b 15 07 3e 3c 06 9d 3c a9 6b 03 3b 6e 09 cf bd
       0.13191716 0.019168012 0.0020053184 -0.101092204
0003a0 34 05 83 bd 56 45 44 bd ef e5 c9 bc af e7 6a 3c
       -0.06397477 -0.047917686 -0.024645774 0.014337464
0003b0 3f 17 8d bd d1 72 de bd a1 db 62 bc 0e ee ba bd
       -0.068891995 -0.10861743 -0.013846309 -0.091274366
0003c0 57 2a 17 3d 9e c0 e8 3c 5d ba 2e 3e fd 46 c3 3d
       0.036905613 0.02841216 0.1706328 0.09535024
0003d0 ae 11 84 bc db 9b b6 3c 92 fe 60 3c 70 d9 11 bd
       -0.016121712 0.022291115 0.013732569 -0.035607755
0003e0 d7 1f e5 3c 03 c6 0a 3d 1a be 90 bc ba 24 52 3d
       0.027969284 0.033880245 -0.017668772 0.051304556
0003f0 42 88 02 3d 94 63 6c 3c 81 b8 1d bc 79 77 60 bd
       0.031868227 0.014428038 -0.009626509 -0.054801438

conv3.bias f4 [64]
000000 b3 3f d9 bc 56 ae b4 3d d3 18 c1 3c 15 32 46 bd
       -0.026519632 0.088223144 0.023571407 -0.048387606
000010 f3 51 aa 3d a6 51 28 3d 57 a2 f5 bb e8 b5 5e 3d
       0.08316412 0.04109349 -0.007496159 0.054372698
000020 fe e3 83 3d 23 53 a7 3d af 09 de ba 56 f4 c2 bc
       0.064399704 0.08170154 -0.0016940142 -0.02379815
000030 15 79 2c 3d c6 46 3f bd 60 66 37 3d 63 df 18 3d
       0.04210766 -0.046698354 0.044775367 0.037322413
000040 0f a6 81 bd 4c c8 b1 3d 8e e6 39 bd 05 12 94 bb
       -0.06330501 0.08680782 -0.04538589 -0.0045187497
000050 4f e2 de bc eb 4c d2 3c b5 8b c2 3d c9 6b a2 3d
       -0.027207522 0.025671443 0.09499303 0.07930715
000060 98 cb 04 3d 71 38 cf 3c c1 26 ce 3d 62 34 8f 3c
       0.032420725 0.025295468 0.100659855 0.017481033
000070 89 39 aa 3d a4 91 b0 3d d1 55 c7 3c 7f c4 db 3d
       0.08311755 0.08621529 0.024332913 0.10730838
000080 4e 8c e3 3d ba 25 97 3b a8 95 90 3b 95 0a 94 3a
       0.11110745 0.0046126517 0.0044123717 0.0011294658
000090 47 fb f9 bb 4d 64 0b 3d fe e4 4b 3d ae a7 95 bd
       -0.0076288315 0.0340312 0.04977893 -0.07307373
0000a0 62 b9 73 3d de 9b a1 3d 97 28 39 3c 7c 51 bb 3d
       0.059502967 0.078910574 0.011301181 0.09146401
0000b0 45 92 6e 3d 90 16 03 3d 2f 72 59 bc df 7b 3e 3d
       0.058244962 0.03200394 -0.013271852 0.04650485
0000c0 41 58 9d 3d 94 ad c9 bc bf 3a 4d bc 3c 4e 96 3d
       0.07682849 -0.024618901 -0.012526213 0.07339141
0000d0 53 4e 44 3d 29 ff 01 3d da 2e 2e bd c3 3d 27 bd
       0.04792626 0.03173748 -0.04252515 -0.040830385
0000e0 61 53 7b bc 3a 1f 61 bd 53 18 24 bd 6d 93 74 3c
       -0.015339703 -0.05496142 -0.04006226 0.014927727
0000f0 4b 72 8b 3d 5b 20 2b 3d 79 13 f7 bc 2b 98 46 3d
       0.06808909 0.041778903 -0.030160652 0.048484962

fc4.weight f4 [128, 768]
000000 b0 46 b4 bd 57 11 b2 3a 34 07 0d 3d 3c 07 11 bc
       -0.08802545 0.001358549 0.034430698 -0.008851822
000010 59 3e 1e bd de 90 a7 bd fa bd 04 3e 0e 3e 7a 3d
       -0.038633678 -0.08181928 0.12963095 0.061094336
000020 63 03 57 3d 3b 40 12 3d aa a9 3a 3d 40 e0 83 bc
       0.052493464 0.035705786 0.04557196 -0.016098142
000030 e5 fe 26 3c 83 f6 11 bd 96 91 a7 bc 54 9c 01 3d
       0.0101926075 -0.035635483 -0.020455163 0.031643227
000040 b9 14 81 bc f2 1d ad b9 cb a2 da 3b f3 f6 75 3c
       -0.015756952 -0.00033019442 0.0066722385 0.015012491
000050 86 72 b4 bd d7 e9 f4 bc 28 27 69 bd 0d c1 42 3d
       -0.08810906 -0.02989666 -0.056922108 0.04754739
000060 0f 91 d7 bc cc 87 ca 3d 2d 52 ad 3c dd 1f aa 3d
       -0.026314287 0.098891824 0.021157349 0.08306859
000070 5d d0 ce 3d e0 96 46 bd d6 7e 84 bd d3 ff 7f be
       0.10098336 -0.04848373 -0.064695045 -0.24999933
000080 76 d0 79 bd 77 a6 c0 bd 76 e4 33 3d 22 8f d9 bd
       -0.06098982 -0.09406751 0.04391905 -0.106230035
000090 8b 26 56 3d af f9 3c bc 12 79 85 3b 38 e1 11 3d
       0.05228285 -0.011534139 0.0040732706 0.035615176
0000a0 09 7f 46 bb 86 ba 20 3d ad bf c4 bb fc 9f da 3c
       -0.0030288121 0.039240383 -0.006004295 0.026687615
0000b0 04 fb 58 3b 13 3f cc bc 3f 0f fa 3b 71 18 c1 bb
       0.0033108601 -0.02493242 0.007631212 -0.005892806
0000c0 c6 2f 1c 3d 31 23 07 3d 18 cf a3 bd 2e 2a 17 bd
       0.038131498 0.032992546 -0.079984844 -0.03690546
0000d0 5a 50 cf bc f5 82 a2 bc 29 d6 94 bd d9 45 1b bd
       -0.02530687 -0.019837836 -0.0726741 -0.03790841
0000e0 30 7d 82 bd ab 38 76 bd 7b aa 31 3c e8 74 db 3c
       -0.06371534 -0.060112637 0.010843868 0.026789144
0000f0 01 07 99 bc e4 01 2f bd d5 c8 01 bc 9a 0b d5 3d
       -0.018680098 -0.042726412 -0.007921417 0.104026034
000100 d3 57 a7 3d 3b 26 41 bd b4 eb 91 bd df 41 84 bc
       0.08171048 -0.0471556 -0.07125035 -0.016144691
000110 78 6a 90 bd 15 f4 7d bd 16 cf 00 3c 2c fd 3a bc
       -0.07051557 -0.062000353 0.007861873 -0.0114129
000120 6d 28 81 3d d3 a5 c4 3c a8 34 ad bd 97 7c 36 bd
       0.06306539 0.024004852 -0.08457309 -0.044552412
000130 f7 a0 9f bb 54 88 c2 3c ba 50 0d be 79 14 4d bc
       -0.0048714834 0.023746647 -0.13800326 -0.012517088
000140 0f 3d 5b 3c 3f 9f 0c 3d f9 18 57 3b bc b2 81 3b
       0.013381257 0.034331556 0.0032821281 0.0039580744
000150 7f b6 6c bc 4d 79 d9 bd ec a0 31 3d ec 10 dc 3c
       -0.014447807 -0.106188394 0.043366358 0.026863538
000160 73 0d a5 3c 8a 27 1c bd 40 97 39 bc 1c b8 56 bd
       0.020148015 -0.038123645 -0.011327565 -0.052421674
000170 81 91 1e bd c4 b1 84 3c f4 d2 a8 3c 3c a9 85 3d
       -0.038712982 0.016198047 0.020608403 0.065264195
000180 cb 15 e5 3c f7 37 22 3d 46 36 7f 3d d7 90 1e bd
       0.027964493 0.039604153 0.06230762 -0.03871235
000190 80 43 3f 3d 9e 41 47 bd 5a 4b 27 3e 25 fe e7 3d
       0.046695232 -0.04864656 0.16337338 0.11327771
0001a0 78 28 39 3b fa f4 f1 3d d9 d9 3a 3c f7 47 8c bc
       0.002825288 0.11814304 0.011404478 -0.01712416
0001b0 0e 7e 84 bd 50 e1 99 bb 48 f4 38 3c 1c 86 d9 bd
       -0.064693555 -0.004696049 0.01128871 -0.106212825
0001c0 ca cc 0a be 9f aa 80 3d 77 72 36 3d 04 5b b2 bd
       -0.13554683 0.062825434 0.044542756 -0.08708766
0001d0 47 54 59 bd bd 77 ec 3b 1e 04 69 3d 08 b6 96 bc
       -0.05305889 0.0072164224 0.056888692 -0.018397346
0001e0 38 47 ee 3c 20 22 bf bd b4 19 45 3d 58 ee 94 3c
       0.029086694 -0.09332681 0.048120216 0.018180057
0001f0 91 e1 e4 bc 3e ec e7 bc 26 e8 96 bc 41 bd 81 3d
       -0.02793959 -0.028310891 -0.018421244 0.063349254
000200 85 29 93 3d 33 6b bd bd da 6e 21 bd c3 57 a2 3d
       0.071856536 -0.09248962 -0.039412357 0.079268955
000210 7b c0 eb 3d c5 6c a4 bc fa 7e ea bc 42 40 f6 3c
       0.11511322 -0.020071397 -0.028625 0.030059937
000220 51 6d e4 bc bd 5d d2 bc 24 69 d4 3d ad 1a 11 3d
       -0.027884157 -0.025679464 0.103716165 0.03542583
000230 be 26 55 bd b5 be ab bb 6a f1 13 3d 52 ff ee 3d
       -0.0520389 -0.00524124 0.036118902 0.11669792
000240 4e 9e 00 bc e0 40 af 3d 2f 3d 8f 3d 57 64 94 3d
       -0.007850243 0.08557296 0.06994092 0.07245701
000250 3b 83 27 3e ea fe db bc d5 59 c8 3d ae 38 88 3c
       0.16358654 -0.026854951 0.09782759 0.01662859
000260 09 f6 95 bd 7f ab 59 bd 9e 24 17 be 96 aa 4e bd
       -0.07322318 -0.053142067 -0.14760062 -0.050455652
000270 01 4f 8a bd 94 ca a3 3c f4 d6 3c bd bb 52 4f bd
       -0.0675335 0.019994058 -0.046103433 -0.050616007
000280 50 ba f1 bd d6 e1 8f bd 25 30 16 3d ba 7c bc 3d
       -0.118031144 -0.07025497 0.036667008 0.09203477
000290 67 18 32 bd 28 8b 23 bd 7e 6b 73 ba 6e 81 76 ba
       -0.043480303 -0.03992763 -0.0009285732 -0.0009403442
0002a0 75 61 94 3d 38 6e 05 be 5d 3f 3d bd 33 e2 f3 3c
       0.07245151 -0.13030326 -0.046203006 0.029770946
0002b0 07 19 9d bd b7 da fa 3c f4 a0 9c bd 27 58 d1 3d
       -0.07670789 0.03062187 -0.07647887 0.10221892
0002c0 0f af 10 3d 8e be 83 bb 80 d9 fc 3b 4b c1 95 3b
       0.0353232 -0.0040205186 0.0077163577 0.0045701615
0002d0 29 e6 f7 3c 26 ac 1d 3d 01 21 91 bd 7d 37 e0 bd
       0.030261116 0.03849425 -0.07086373 -0.109480835
0002e0 f9 f9 d6 3c 37 d4 f0 bd 06 29 89 3d 33 c6 2c 3c
       0.026242243 -0.11759227 0.06697278 0.010545301
0002f0 03 18 56 bd 84 e8 88 3d 2f 9d e0 bd 8a 20 d6 3d
       -0.052268993 0.06684974 -0.109674804 0.10455425
000300 af 44 ba 3c d2 48 3b bd 8d 5c 00 3d 89 bb ad bd
       0.022737829 -0.045723744 0.031338263 -0.08483035
000310 69 2d 10 be 0a cc d2 bd a5 82 8c bd 96 d5 94 3c
       -0.14079823 -0.102928236 -0.06860856 0.018168252
000320 8b da a1 3c f1 05 04 bd a1 93 4e bd ea 47 bc 3b
       0.01975753 -0.03223223 -0.05043376 0.0057458775
000330 e2 b3 69 3b 32 b0 29 bd 70 9a 2d bd 6b fb c3 3d
       0.0035660197 -0.0414278 -0.04238361 0.095694385
000340 eb 1a c8 3d 0f ef 0b 3c b7 de 8f 3c 02 bb 15 3d
       0.09770759 0.008540883 0.017562253 0.036555298
000350 1b 7d ba bd 1e bb e4 bc aa d0 0b bd 44 3b 01 bb
       -0.09105893 -0.027921256 -0.034134544 -0.0019719163
000360 2a 14 cd 3d f0 4e 69 ba 5e 81 e9 bd 6f cd d0 bd
       0.100136116 -0.0008900007 -0.11401628 -0.10195433
000370 46 38 95 bd 4e 72 25 be ae b6 ad 3d e7 8e ad 3c
       -0.07286124 -0.16156885 0.08482109 0.021186305
000380 53 b4 36 3d 6c 8f 04 3e 9c 3b 11 3d 35 39 70 bd
       0.044605564 0.12945336 0.03545724 -0.058648307
000390 a3 9f 83 3d ff 74 c6 bc 66 0d 6f bd f1 9f 20 be
       0.06426933 -0.02422571 -0.058362387 -0.15686013
0003a0 80 e1 1f be c9 98 57 bd 0a b2 8c bd a8 12 36 3d
       -0.15613365 -0.05263594 -0.06869896 0.044451386
0003b0 8b 0f 21 bd e1 c2 94 bc ea ad 32 3c 97 92 43 3d
       -0.039321464 -0.018159332 0.010905722 0.04774722
0003c0 2a 5f 0b 3c 07 b4 32 bd b9 94 bf 3a 29 c2 12 be
       0.008506576 -0.04362872 0.0014616466 -0.14331879
0003d0 11 30 57 3d 7d ce dc bd b4 6e 0b 3e 38 42 c0 3c
       0.052536074 -0.10781572 0.13616449 0.023469076
0003e0 ed bb b3 bd 46 a3 cd 3b d6 27 54 bd ce bd af bc
       -0.087760784 0.006275567 -0.051795803 -0.02145281
0003f0 09 0e 95 3d f2 ff a5 bc 08 d5 47 3c 5a f5 2e 3d
       0.072780676 -0.020263646 0.012196787 0.042714454

fc4.bias f4 [128]
000000 f8 65 25 3c ca 58 1d bd 9f 1a 88 bb f0 ba 08 3c
       0.010095112 -0.038414754 -0.004153564 0.008345351
000010 8e 54 17 3a 75 64 bb 3b dd 9c d4 bc 39 24 e9 3c
       0.00057727925 0.0057187625 -0.025953704 0.028459655
000020 fc 08 1d 3b 37 a4 f2 bb ac 77 09 3d 91 99 1b 3c
       0.0023961654 -0.00740483 0.033561394 0.009497062
000030 b3 e8 19 bd 1a 4a b1 3c 93 65 00 3d a9 09 65 3c
       -0.037575435 0.02164178 0.03134687 0.013979354
000040 ee 99 92 3c 4d 16 01 3d 0c 78 17 3d f8 9a a8 3a
       0.017895665 0.03151541 0.03697972 0.0012863567
000050 ac 01 04 bc c7 e4 36 3d 09 cc e1 3a 30 37 2a 3d
       -0.008057039 0.044651773 0.0017226945 0.041556537
000060 3a 07 33 bd b1 ac f1 3c 3b 4a f3 3c 2a ac 0c 3d
       -0.043708064 0.029501291 0.029698482 0.034343876
000070 95 fa 83 3c 28 d3 61 3d 2a 6f 48 bd e9 c6 0a 3d
       0.016110698 0.055133015 -0.04893414 0.0338811
000080 bc 5c 32 3c 0a a0 3f 3a ab bd 9c bc ca 1e fc 3c
       0.010886367 0.00073099195 -0.01913341 0.0307764
000090 14 7a f1 bb d7 4f 82 bb d6 b2 7a bd 7a 5e 63 3d
       -0.007369289 -0.003976803 -0.061205707 0.05551002
0000a0 ba 48 89 bc 5b 60 9b bd 5c 50 9f bd ca 05 9e 3b
       -0.016758312 -0.07586738 -0.07778999 0.0048224675
0000b0 a7 9c 8b bc 44 33 d4 3b 6a 9b 38 3c dd 90 7c ba
       -0.017042471 0.006475838 0.011267522 -0.00096346234
0000c0 57 04 99 bc 59 76 f2 3b 8d 1c 03 bd 95 1e 36 3c
       -0.018678827 0.007399362 -0.03200965 0.01111569
0000d0 c6 02 61 bd bc 4f 1e bd 41 36 19 bc 63 1f 54 3d
       -0.054934286 -0.03865026 -0.009351314 0.051787745
0000e0 58 47 4f 3d 7d ba 4d 3c 29 d7 3f 3c 0f 45 99 3c
       0.050605148 0.012556669 0.011709013 0.018709688
0000f0 03 21 ad 3c 8b 22 1b 3d f3 07 87 3d d8 db 83 3c
       0.021133905 0.03787474 0.06593313 0.01609604
000100 76 cb 01 bd f3 af b2 3b 22 1c 8c bd 53 c9 5d 3d
       -0.031688176 0.0054531037 -0.068413034 0.054147076
000110 7f d8 7e bc 70 a9 49 bd d9 0b b3 bc a0 fa 07 bb
       -0.015554546 -0.049233854 -0.021856235 -0.002074875
000120 a5 52 5c 3d 28 33 82 3c 30 bb 82 bc 45 c5 2e bc
       0.053789753 0.015893534 -0.015958399 -0.01066715
000130 13 34 27 3d dc 1c ed bc 19 0a 12 bd 05 5e 5e bd
       0.040821146 -0.028944425 -0.03565416 -0.054288883
000140 79 f8 4b bd 3a a9 21 bd 39 0a 68 3d 21 7f e1 bc
       -0.04979751 -0.039468028 0.056650374 -0.02752644
000150 d7 5c 6e 3b 18 86 26 bd eb ea 4f 3d b2 c1 2e 3d
       0.0036371255 -0.040655226 0.050761145 0.04266519
000160 e8 25 6b bd ab 22 48 bc 8a 19 46 3b 39 fc 2c bd
       -0.057409197 -0.012215297 0.0030227625 -0.042232726
000170 47 3a 9e 3c 19 52 52 3d 2b 78 8a 3a b0 a3 27 bc
       0.019314898 0.051347826 0.0010564377 -0.010231897
000180 ae 7b 67 bb 99 2e df 3c 93 3f 04 bd 71 5b cd bc
       -0.0035321522 0.0272439 -0.03228719 -0.025068017
000190 e6 2d 07 bd 23 4b 4e bd df 82 13 3d 77 d0 2c bd
       -0.033002757 -0.050364625 0.03601348 -0.042190995
0001a0 b5 60 38 3d 59 8b 2f 3d 36 b7 a5 3c a0 26 d1 bc
       0.045014102 0.0428575 0.020228963 -0.025531113
0001b0 3c eb 02 bc fa 65 94 bd fb 45 50 bd 34 48 90 3b
       -0.007990655 -0.07246013 -0.05084799 0.0044031385
0001c0 16 8d 80 3d 85 63 18 3c 2e 70 93 3d 58 8f ce 3d
       0.0627691 0.009301071 0.07199131 0.100859344
0001d0 28 6a 1b 3c 74 12 d3 ba 8d a7 9f 3d 4a 90 a1 3c
       0.009485759 -0.0016103522 0.0779563 0.019722123
0001e0 17 35 31 3d 14 70 09 3b 2e 8e 53 3d da fd c0 3b
       0.04326352 0.0020971345 0.051649265 0.0058896365
0001f0 3e c1 15 3d 22 41 5d 3b 2a 59 10 3c e1 fd 31 3d
       0.036561243 0.0033760746 0.008810321 0.04345501

fc5.weight f4 [2, 128]
000000 13 09 55 bc f4 d6 7e be df a5 9f 3e 75 ef 21 be
       -0.013002652 -0.24886686 0.31181237 -0.15814002
000010 d8 76 99 be 6b cd 88 3d a3 d9 70 3d 02 d9 2e be
       -0.29973483 0.06679805 0.058801305 -0.1707497
000020 b7 5a 54 3e 9e ff 4d 3e ff f5 14 be 22 a7 e8 be
       0.2073773 0.20117041 -0.14546965 -0.45440012
000030 98 35 a1 be 5b bb 89 3d e3 94 3d be 31 20 18 be
       -0.314862 0.06725188 -0.18513827 -0.1485603
000040 bd a9 2e 3d 04 c4 22 3e 55 94 a2 3d fa e8 71 3d
       0.042642344 0.15895087 0.07938448 0.059060074
000050 93 c1 ff bd a9 f4 c7 3d 23 eb 1f be 73 cc 7f be
       -0.12488093 0.09763462 -0.15617041 -0.24980335
000060 eb fe 36 be c9 8a 6f 3d 12 c4 7a 3e 4c 7f 65 be
       -0.17870681 0.058481965 0.24488857 -0.22411841
000070 7e d0 6f be 53 e6 2a 3d ef b8 67 be 25 9b 6e be
       -0.23419377 0.04172356 -0.2262914 -0.2330137
000080 b9 93 0e be 41 85 b6 3d c6 96 29 3e e0 ae 6d 3d
       -0.13923539 0.08912135 0.16561422 0.058028102
000090 de 8f c3 3e 24 7b dd bd 5b bc b1 be 8a a0 e2 bd
       0.381957 -0.10814503 -0.34714016 -0.11065777
0000a0 cb bd 85 3d b7 df 2f be 90 f1 a4 3e e5 73 06 3d
       0.06530341 -0.17175184 0.32215548 0.03282537
0000b0 dc a8 31 3d a7 cf 67 be a8 66 41 3d 73 8b f0 bd
       0.043373927 -0.22637807 0.04721704 -0.11745348
0000c0 60 6d 30 be d5 2e af bd f1 84 77 3e 54 4b 6a be
       -0.17229223 -0.085538544 0.24171807 -0.22880298
0000d0 c5 5c 92 be f4 dd 59 be b1 2d 75 3e 98 a7 ca 3d
       -0.28586403 -0.21276075 0.23943211 0.09895247
0000e0 b4 10 a6 3d 18 1f 04 3e da aa 30 3b 5b f2 67 3d
       0.081086546 0.12902486 0.0026957304 0.056627613
0000f0 c9 06 79 3d a3 0c 52 be 3b ce 33 be 7b 4c 55 3e
       0.060797486 -0.20512633 -0.1755914 0.20829956
000100 f9 d0 b0 3e 72 9f 9b 3e 41 01 a7 be 47 ed 70 be
       0.34534433 0.30395085 -0.32618144 -0.23528014
000110 cd 7e bb 3e 2b 01 72 bc 5f ce 91 3c 87 01 20 3e
       0.3662018 -0.014770786 0.0177986 0.15625583
000120 44 ec 33 be 06 29 d6 bd 6f f7 94 3e c0 da 9d 3e
       -0.17570597 -0.10457043 0.29095027 0.30830956
000130 7d 59 a6 bd 83 08 85 be 38 54 58 3d 55 64 8b 3e
       -0.08122537 -0.25983056 0.052814692 0.27224985
000140 79 1a a5 3e 25 60 5a bd d8 da dd 3d 63 56 f5 3c
       0.3224676 -0.053314347 0.10832757 0.029948419
000150 9c 8e 58 bd 92 de 7a 3d 9b fd 5a 3e 18 18 3d 3d
       -0.052870378 0.061247416 0.21385805 0.046165556
000160 91 7a 7f be 03 91 0a 3e 79 52 5e be 4c 5b 14 3d
       -0.24949099 0.1353188 -0.21711148 0.03621988
000170 be 72 a4 3d f9 70 05 be 22 27 02 be 7c a2 1f be
       0.08029698 -0.13031377 -0.1271024 -0.15589327
000180 48 c6 13 3e 80 40 25 3e 47 89 2c 3c 86 ad b0 ba
       0.14431107 0.16137886 0.010530776 -0.0013479448
000190 ec 6e af 3c a4 f0 58 3e d8 4b 63 3d 85 bc c1 bb
       0.021415196 0.21185547 0.055492252 -0.005912366
0001a0 4e b8 d3 bd eb 7c 8c 3d f4 e8 f7 3c 73 9f 09 be
       -0.10337888 0.06859764 0.030262448 -0.13439731
0001b0 60 33 a8 3e d7 78 9e 3d 31 88 48 be fc 12 2d b9
       0.32851696 0.07737892 -0.19583203 -0.00016505638
0001c0 1c 85 1a be 41 d3 c3 bd 0c 48 16 3d 6a 2b ba bd
       -0.1508984 -0.09561778 0.036689803 -0.09090312
0001d0 ac f1 26 3e 9f 28 3f be 4f 8a 7e be 71 ae b7 be
       0.16303128 -0.1866784 -0.24857448 -0.35875276
0001e0 13 3c cf bd 45 0e b7 3d c7 a8 82 3d 46 77 a4 3d
       -0.1011888 0.089382686 0.06379848 0.08030562
0001f0 f1 7b 97 bd 19 0f 29 3d ba 60 85 3e da 59 1b 3d
       -0.07396687 0.041274164 0.2605036 0.037927486
000200 e4 d9 99 be 15 e7 30 bd ef 70 1c be 0d 9b 55 be
       -0.3004905 -0.043189127 -0.15277456 -0.20859928
000210 0f ff 40 bd e4 e9 9e bc 5a 45 2d 3e 84 81 27 be
       -0.047118243 -0.019398637 0.16920987 -0.16358
000220 7f fe 50 be 79 be 82 3e 86 0c e9 bd 51 ea 61 3e
       -0.20409583 0.25535944 -0.11379342 0.22062041
000230 45 59 b5 3d 6f 8d 02 3d fb fc d8 bd 12 ae 52 bd
       0.088549174 0.031873163 -0.10595127 -0.051435538
000240 55 41 9c 3d ee db 68 be 86 8f a3 3d 45 51 a1 3d
       0.076296486 -0.22740147 0.07986359 0.07876829
000250 19 2f 53 be f2 f3 0c 3e c1 e8 34 3c 37 55 1c bd
       -0.20623435 0.13764933 0.011041821 -0.038167205
000260 16 0a 2f 3e 70 45 01 3d ad 86 8b 3e e8 04 0c be
       0.17093691 0.03156036 0.27251187 -0.13673747
000270 f4 eb d5 bd 7e d9 88 3d 10 9d 0e be 9e 74 d0 bd
       -0.10445395 0.06682108 -0.13927102 -0.10178493
000280 d4 d2 be 3d e0 80 b5 3d 05 00 8b 3e 77 84 f1 3a
       0.09317556 0.088624716 0.27148452 0.0018426318
000290 73 05 67 3e ab f0 93 bd c8 46 de 3d 1a fb 55 bc
       0.22560672 -0.07223638 0.10853344 -0.013060356
0002a0 ec 34 0b be b2 c8 80 be 74 69 4d 3e 38 79 1b 3d
       -0.13594407 -0.25153118 0.20059758 0.0379574
0002b0 2b a0 7c bc b6 79 81 3c 58 a7 40 bd 21 d0 cc bd
       -0.015419046 0.015805107 -0.04703459 -0.10000635
0002c0 24 66 93 be a5 d9 17 be cb 32 6d 3e e2 9b 34 be
       -0.28788865 -0.14829119 0.23163907 -0.1763759
0002d0 84 fb e3 3c 0c ad 6a be 30 8c 31 be c1 dd 89 3d
       0.027829893 -0.22917575 -0.17338634 0.06731749
0002e0 cd 82 2e 3d e8 f2 8a 3c 15 cd a7 bd a1 d6 6c bd
       0.04260521 0.01696153 -0.08193413 -0.057821874
0002f0 1f 27 95 3d be 9c 5e be 05 40 5c be 4d b3 7b 3e
       0.072828524 -0.2173948 -0.21508797 0.24580117
000300 e1 3c 72 3e c1 11 92 3e a1 e5 6a 3e 03 94 66 be
       0.23656036 0.2852917 0.22939159 -0.225174
000310 a5 b3 0a be 62 3f 6d bd 8b 34 74 3c 4d e5 22 3e
       -0.13545091 -0.057921775 0.014905105 0.15907784
000320 f9 2b 48 be 18 f4 27 be 2a 59 32 3e 2f a8 8e be
       -0.19548024 -0.16401708 0.17416826 -0.2786269
000330 92 a4 fb 3c 57 b9 56 be ef f8 a4 bd ca 6d 48 3e
       0.030718122 -0.20969139 -0.08055293 0.19573131
000340 48 e1 14 3e bf 64 93 bd 0a 29 5a 3d 28 cd 90 3c
       0.14539063 -0.0719695 0.053261794 0.017675951
000350 9d 45 f7 bc 79 c1 0f bc f1 5f ff 3d 9e b6 5f 3d
       -0.030184561 -0.008774155 0.12469471 0.054617517
000360 27 1f 5d 3e 24 02 d9 3d b0 c3 3f be cd 16 9e 3d
       0.21593915 0.105961114 -0.18726993 0.07719193
000370 30 13 0f be 7f 83 4b bd 65 54 45 bd df 61 0a be
       -0.13972163 -0.04968595 -0.048176188 -0.13513897
000380 bb ab 61 3e c4 28 27 3e 87 0c c2 bd b0 68 e4 ba
       0.22038166 0.16324145 -0.09475046 -0.0017426219
000390 3e b5 b2 bd 8a 48 bf bd c0 09 6d 3d 92 03 4c bd
       -0.087259755 -0.093400076 0.057870626 -0.049808092
0003a0 53 5b fd 3a fe cd 7a 3d dd ff 9e 3d 2c 71 49 be
       0.0019329585 0.061231606 0.07763646 -0.19672078
0003b0 ec 3d 83 3e 12 78 48 be 9f a2 96 be a7 70 5f bd
       0.2563318 -0.19577053 -0.29420945 -0.054550793
0003c0 7d 7a ff bd 0f a0 65 3d d1 65 86 3d bd 34 2f be
       -0.12474535 0.056060847 0.06562389 -0.17109962
0003d0 45 e8 08 3e aa ac 03 be 46 c4 bb bd 5f b8 4b bd
       0.13369854 -0.12858835 -0.091682956 -0.049736377
0003e0 35 ea 67 3d 72 d9 8b 3d 77 b8 42 3d 19 a6 b2 bd
       0.05661984 0.06828584 0.0475392 -0.08723087
0003f0 dc 17 54 3d 7e c7 72 3d 9f d3 38 be cb aa b6 bd
       0.051780567 0.05927228 -0.18049477 -0.08919295

fc5.bias f4 [2]
000000 e5 c6 84 3d 4e 57 0d bc
       0.064832486 -0.008626772
